<?xml version="1.0"?>
<net name="facenet_keras" version="11">
	<layers>
		<layer id="0" name="input_1" type="Parameter" version="opset1">
			<data shape="1,160,160,3" element_type="f32" />
			<rt_info>
				<attribute name="old_api_map_order" version="0" value="0, 2, 3, 1" />
			</rt_info>
			<output>
				<port id="0" precision="FP32" names="input_1,input_1:0">
					<dim>1</dim>
					<dim>160</dim>
					<dim>160</dim>
					<dim>3</dim>
				</port>
			</output>
		</layer>
		<layer id="1" name="input_1/Transpose([0 3 1 2])/value2933637051" type="Const" version="opset1">
			<data element_type="i64" shape="4" offset="0" size="32" />
			<output>
				<port id="0" precision="I64">
					<dim>4</dim>
				</port>
			</output>
		</layer>
		<layer id="2" name="input_1/Transpose([0 3 1 2])" type="Transpose" version="opset1">
			<input>
				<port id="0" precision="FP32">
					<dim>1</dim>
					<dim>160</dim>
					<dim>160</dim>
					<dim>3</dim>
				</port>
				<port id="1" precision="I64">
					<dim>4</dim>
				</port>
			</input>
			<output>
				<port id="2" precision="FP32">
					<dim>1</dim>
					<dim>3</dim>
					<dim>160</dim>
					<dim>160</dim>
				</port>
			</output>
		</layer>
		<layer id="3" name="Conv2d_1a_3x3_BatchNorm/FusedBatchNormV3/mean/Fused_Mul__copy" type="Const" version="opset1">
			<data element_type="f32" shape="32, 3, 3, 3" offset="32" size="3456" />
			<output>
				<port id="0" precision="FP32" names="Conv2d_1a_3x3/Conv2D/ReadVariableOp:0">
					<dim>32</dim>
					<dim>3</dim>
					<dim>3</dim>
					<dim>3</dim>
				</port>
			</output>
		</layer>
		<layer id="4" name="Conv2d_1a_3x3/Conv2D" type="Convolution" version="opset1">
			<data strides="2, 2" dilations="1, 1" pads_begin="0, 0" pads_end="0, 0" auto_pad="valid" />
			<input>
				<port id="0" precision="FP32">
					<dim>1</dim>
					<dim>3</dim>
					<dim>160</dim>
					<dim>160</dim>
				</port>
				<port id="1" precision="FP32">
					<dim>32</dim>
					<dim>3</dim>
					<dim>3</dim>
					<dim>3</dim>
				</port>
			</input>
			<output>
				<port id="2" precision="FP32">
					<dim>1</dim>
					<dim>32</dim>
					<dim>79</dim>
					<dim>79</dim>
				</port>
			</output>
		</layer>
		<layer id="5" name="data_add_22393" type="Const" version="opset1">
			<data element_type="f32" shape="1, 32, 1, 1" offset="3488" size="128" />
			<output>
				<port id="0" precision="FP32">
					<dim>1</dim>
					<dim>32</dim>
					<dim>1</dim>
					<dim>1</dim>
				</port>
			</output>
		</layer>
		<layer id="6" name="Conv2d_1a_3x3_BatchNorm/FusedBatchNormV3/variance/Fused_Add_" type="Add" version="opset1">
			<data auto_broadcast="numpy" />
			<input>
				<port id="0" precision="FP32">
					<dim>1</dim>
					<dim>32</dim>
					<dim>79</dim>
					<dim>79</dim>
				</port>
				<port id="1" precision="FP32">
					<dim>1</dim>
					<dim>32</dim>
					<dim>1</dim>
					<dim>1</dim>
				</port>
			</input>
			<output>
				<port id="2" precision="FP32" names="Conv2d_1a_3x3_BatchNorm/FusedBatchNormV3:0">
					<dim>1</dim>
					<dim>32</dim>
					<dim>79</dim>
					<dim>79</dim>
				</port>
			</output>
		</layer>
		<layer id="7" name="Conv2d_1a_3x3_Activation/Relu" type="ReLU" version="opset1">
			<input>
				<port id="0" precision="FP32">
					<dim>1</dim>
					<dim>32</dim>
					<dim>79</dim>
					<dim>79</dim>
				</port>
			</input>
			<output>
				<port id="1" precision="FP32" names="Conv2d_1a_3x3_Activation/Relu:0">
					<dim>1</dim>
					<dim>32</dim>
					<dim>79</dim>
					<dim>79</dim>
				</port>
			</output>
		</layer>
		<layer id="8" name="Conv2d_2a_3x3_BatchNorm/FusedBatchNormV3/mean/Fused_Mul__copy" type="Const" version="opset1">
			<data element_type="f32" shape="32, 32, 3, 3" offset="3616" size="36864" />
			<output>
				<port id="0" precision="FP32" names="Conv2d_2a_3x3/Conv2D/ReadVariableOp:0">
					<dim>32</dim>
					<dim>32</dim>
					<dim>3</dim>
					<dim>3</dim>
				</port>
			</output>
		</layer>
		<layer id="9" name="Conv2d_2a_3x3/Conv2D" type="Convolution" version="opset1">
			<data strides="1, 1" dilations="1, 1" pads_begin="0, 0" pads_end="0, 0" auto_pad="valid" />
			<input>
				<port id="0" precision="FP32">
					<dim>1</dim>
					<dim>32</dim>
					<dim>79</dim>
					<dim>79</dim>
				</port>
				<port id="1" precision="FP32">
					<dim>32</dim>
					<dim>32</dim>
					<dim>3</dim>
					<dim>3</dim>
				</port>
			</input>
			<output>
				<port id="2" precision="FP32">
					<dim>1</dim>
					<dim>32</dim>
					<dim>77</dim>
					<dim>77</dim>
				</port>
			</output>
		</layer>
		<layer id="10" name="data_add_2239622401" type="Const" version="opset1">
			<data element_type="f32" shape="1, 32, 1, 1" offset="40480" size="128" />
			<output>
				<port id="0" precision="FP32">
					<dim>1</dim>
					<dim>32</dim>
					<dim>1</dim>
					<dim>1</dim>
				</port>
			</output>
		</layer>
		<layer id="11" name="Conv2d_2a_3x3_BatchNorm/FusedBatchNormV3/variance/Fused_Add_" type="Add" version="opset1">
			<data auto_broadcast="numpy" />
			<input>
				<port id="0" precision="FP32">
					<dim>1</dim>
					<dim>32</dim>
					<dim>77</dim>
					<dim>77</dim>
				</port>
				<port id="1" precision="FP32">
					<dim>1</dim>
					<dim>32</dim>
					<dim>1</dim>
					<dim>1</dim>
				</port>
			</input>
			<output>
				<port id="2" precision="FP32" names="Conv2d_2a_3x3_BatchNorm/FusedBatchNormV3:0">
					<dim>1</dim>
					<dim>32</dim>
					<dim>77</dim>
					<dim>77</dim>
				</port>
			</output>
		</layer>
		<layer id="12" name="Conv2d_2a_3x3_Activation/Relu" type="ReLU" version="opset1">
			<input>
				<port id="0" precision="FP32">
					<dim>1</dim>
					<dim>32</dim>
					<dim>77</dim>
					<dim>77</dim>
				</port>
			</input>
			<output>
				<port id="1" precision="FP32" names="Conv2d_2a_3x3_Activation/Relu:0">
					<dim>1</dim>
					<dim>32</dim>
					<dim>77</dim>
					<dim>77</dim>
				</port>
			</output>
		</layer>
		<layer id="13" name="Conv2d_2b_3x3_BatchNorm/FusedBatchNormV3/mean/Fused_Mul__copy" type="Const" version="opset1">
			<data element_type="f32" shape="64, 32, 3, 3" offset="40608" size="73728" />
			<output>
				<port id="0" precision="FP32" names="Conv2d_2b_3x3/Conv2D/ReadVariableOp:0">
					<dim>64</dim>
					<dim>32</dim>
					<dim>3</dim>
					<dim>3</dim>
				</port>
			</output>
		</layer>
		<layer id="14" name="Conv2d_2b_3x3/Conv2D" type="Convolution" version="opset1">
			<data strides="1, 1" dilations="1, 1" pads_begin="0, 0" pads_end="0, 0" auto_pad="same_upper" />
			<input>
				<port id="0" precision="FP32">
					<dim>1</dim>
					<dim>32</dim>
					<dim>77</dim>
					<dim>77</dim>
				</port>
				<port id="1" precision="FP32">
					<dim>64</dim>
					<dim>32</dim>
					<dim>3</dim>
					<dim>3</dim>
				</port>
			</input>
			<output>
				<port id="2" precision="FP32">
					<dim>1</dim>
					<dim>64</dim>
					<dim>77</dim>
					<dim>77</dim>
				</port>
			</output>
		</layer>
		<layer id="15" name="data_add_2240422409" type="Const" version="opset1">
			<data element_type="f32" shape="1, 64, 1, 1" offset="114336" size="256" />
			<output>
				<port id="0" precision="FP32">
					<dim>1</dim>
					<dim>64</dim>
					<dim>1</dim>
					<dim>1</dim>
				</port>
			</output>
		</layer>
		<layer id="16" name="Conv2d_2b_3x3_BatchNorm/FusedBatchNormV3/variance/Fused_Add_" type="Add" version="opset1">
			<data auto_broadcast="numpy" />
			<input>
				<port id="0" precision="FP32">
					<dim>1</dim>
					<dim>64</dim>
					<dim>77</dim>
					<dim>77</dim>
				</port>
				<port id="1" precision="FP32">
					<dim>1</dim>
					<dim>64</dim>
					<dim>1</dim>
					<dim>1</dim>
				</port>
			</input>
			<output>
				<port id="2" precision="FP32" names="Conv2d_2b_3x3_BatchNorm/FusedBatchNormV3:0">
					<dim>1</dim>
					<dim>64</dim>
					<dim>77</dim>
					<dim>77</dim>
				</port>
			</output>
		</layer>
		<layer id="17" name="Conv2d_2b_3x3_Activation/Relu" type="ReLU" version="opset1">
			<input>
				<port id="0" precision="FP32">
					<dim>1</dim>
					<dim>64</dim>
					<dim>77</dim>
					<dim>77</dim>
				</port>
			</input>
			<output>
				<port id="1" precision="FP32" names="Conv2d_2b_3x3_Activation/Relu:0">
					<dim>1</dim>
					<dim>64</dim>
					<dim>77</dim>
					<dim>77</dim>
				</port>
			</output>
		</layer>
		<layer id="18" name="MaxPool_3a_3x3/MaxPool" type="MaxPool" version="opset8">
			<data strides="2, 2" dilations="1, 1" pads_begin="0, 0" pads_end="0, 0" kernel="3, 3" rounding_type="floor" auto_pad="valid" index_element_type="i64" axis="0" />
			<input>
				<port id="0" precision="FP32">
					<dim>1</dim>
					<dim>64</dim>
					<dim>77</dim>
					<dim>77</dim>
				</port>
			</input>
			<output>
				<port id="1" precision="FP32" names="MaxPool_3a_3x3/MaxPool:0">
					<dim>1</dim>
					<dim>64</dim>
					<dim>38</dim>
					<dim>38</dim>
				</port>
				<port id="2" precision="I64">
					<dim>1</dim>
					<dim>64</dim>
					<dim>38</dim>
					<dim>38</dim>
				</port>
			</output>
		</layer>
		<layer id="19" name="Conv2d_3b_1x1_BatchNorm/FusedBatchNormV3/mean/Fused_Mul__copy" type="Const" version="opset1">
			<data element_type="f32" shape="80, 64, 1, 1" offset="114592" size="20480" />
			<output>
				<port id="0" precision="FP32" names="Conv2d_3b_1x1/Conv2D/ReadVariableOp:0">
					<dim>80</dim>
					<dim>64</dim>
					<dim>1</dim>
					<dim>1</dim>
				</port>
			</output>
		</layer>
		<layer id="20" name="Conv2d_3b_1x1/Conv2D" type="Convolution" version="opset1">
			<data strides="1, 1" dilations="1, 1" pads_begin="0, 0" pads_end="0, 0" auto_pad="valid" />
			<input>
				<port id="0" precision="FP32">
					<dim>1</dim>
					<dim>64</dim>
					<dim>38</dim>
					<dim>38</dim>
				</port>
				<port id="1" precision="FP32">
					<dim>80</dim>
					<dim>64</dim>
					<dim>1</dim>
					<dim>1</dim>
				</port>
			</input>
			<output>
				<port id="2" precision="FP32">
					<dim>1</dim>
					<dim>80</dim>
					<dim>38</dim>
					<dim>38</dim>
				</port>
			</output>
		</layer>
		<layer id="21" name="data_add_2241222417" type="Const" version="opset1">
			<data element_type="f32" shape="1, 80, 1, 1" offset="135072" size="320" />
			<output>
				<port id="0" precision="FP32">
					<dim>1</dim>
					<dim>80</dim>
					<dim>1</dim>
					<dim>1</dim>
				</port>
			</output>
		</layer>
		<layer id="22" name="Conv2d_3b_1x1_BatchNorm/FusedBatchNormV3/variance/Fused_Add_" type="Add" version="opset1">
			<data auto_broadcast="numpy" />
			<input>
				<port id="0" precision="FP32">
					<dim>1</dim>
					<dim>80</dim>
					<dim>38</dim>
					<dim>38</dim>
				</port>
				<port id="1" precision="FP32">
					<dim>1</dim>
					<dim>80</dim>
					<dim>1</dim>
					<dim>1</dim>
				</port>
			</input>
			<output>
				<port id="2" precision="FP32" names="Conv2d_3b_1x1_BatchNorm/FusedBatchNormV3:0">
					<dim>1</dim>
					<dim>80</dim>
					<dim>38</dim>
					<dim>38</dim>
				</port>
			</output>
		</layer>
		<layer id="23" name="Conv2d_3b_1x1_Activation/Relu" type="ReLU" version="opset1">
			<input>
				<port id="0" precision="FP32">
					<dim>1</dim>
					<dim>80</dim>
					<dim>38</dim>
					<dim>38</dim>
				</port>
			</input>
			<output>
				<port id="1" precision="FP32" names="Conv2d_3b_1x1_Activation/Relu:0">
					<dim>1</dim>
					<dim>80</dim>
					<dim>38</dim>
					<dim>38</dim>
				</port>
			</output>
		</layer>
		<layer id="24" name="Conv2d_4a_3x3_BatchNorm/FusedBatchNormV3/mean/Fused_Mul__copy" type="Const" version="opset1">
			<data element_type="f32" shape="192, 80, 3, 3" offset="135392" size="552960" />
			<output>
				<port id="0" precision="FP32" names="Conv2d_4a_3x3/Conv2D/ReadVariableOp:0">
					<dim>192</dim>
					<dim>80</dim>
					<dim>3</dim>
					<dim>3</dim>
				</port>
			</output>
		</layer>
		<layer id="25" name="Conv2d_4a_3x3/Conv2D" type="Convolution" version="opset1">
			<data strides="1, 1" dilations="1, 1" pads_begin="0, 0" pads_end="0, 0" auto_pad="valid" />
			<input>
				<port id="0" precision="FP32">
					<dim>1</dim>
					<dim>80</dim>
					<dim>38</dim>
					<dim>38</dim>
				</port>
				<port id="1" precision="FP32">
					<dim>192</dim>
					<dim>80</dim>
					<dim>3</dim>
					<dim>3</dim>
				</port>
			</input>
			<output>
				<port id="2" precision="FP32">
					<dim>1</dim>
					<dim>192</dim>
					<dim>36</dim>
					<dim>36</dim>
				</port>
			</output>
		</layer>
		<layer id="26" name="data_add_2242022425" type="Const" version="opset1">
			<data element_type="f32" shape="1, 192, 1, 1" offset="688352" size="768" />
			<output>
				<port id="0" precision="FP32">
					<dim>1</dim>
					<dim>192</dim>
					<dim>1</dim>
					<dim>1</dim>
				</port>
			</output>
		</layer>
		<layer id="27" name="Conv2d_4a_3x3_BatchNorm/FusedBatchNormV3/variance/Fused_Add_" type="Add" version="opset1">
			<data auto_broadcast="numpy" />
			<input>
				<port id="0" precision="FP32">
					<dim>1</dim>
					<dim>192</dim>
					<dim>36</dim>
					<dim>36</dim>
				</port>
				<port id="1" precision="FP32">
					<dim>1</dim>
					<dim>192</dim>
					<dim>1</dim>
					<dim>1</dim>
				</port>
			</input>
			<output>
				<port id="2" precision="FP32" names="Conv2d_4a_3x3_BatchNorm/FusedBatchNormV3:0">
					<dim>1</dim>
					<dim>192</dim>
					<dim>36</dim>
					<dim>36</dim>
				</port>
			</output>
		</layer>
		<layer id="28" name="Conv2d_4a_3x3_Activation/Relu" type="ReLU" version="opset1">
			<input>
				<port id="0" precision="FP32">
					<dim>1</dim>
					<dim>192</dim>
					<dim>36</dim>
					<dim>36</dim>
				</port>
			</input>
			<output>
				<port id="1" precision="FP32" names="Conv2d_4a_3x3_Activation/Relu:0">
					<dim>1</dim>
					<dim>192</dim>
					<dim>36</dim>
					<dim>36</dim>
				</port>
			</output>
		</layer>
		<layer id="29" name="Conv2d_4b_3x3_BatchNorm/FusedBatchNormV3/mean/Fused_Mul__copy" type="Const" version="opset1">
			<data element_type="f32" shape="256, 192, 3, 3" offset="689120" size="1769472" />
			<output>
				<port id="0" precision="FP32" names="Conv2d_4b_3x3/Conv2D/ReadVariableOp:0">
					<dim>256</dim>
					<dim>192</dim>
					<dim>3</dim>
					<dim>3</dim>
				</port>
			</output>
		</layer>
		<layer id="30" name="Conv2d_4b_3x3/Conv2D" type="Convolution" version="opset1">
			<data strides="2, 2" dilations="1, 1" pads_begin="0, 0" pads_end="0, 0" auto_pad="valid" />
			<input>
				<port id="0" precision="FP32">
					<dim>1</dim>
					<dim>192</dim>
					<dim>36</dim>
					<dim>36</dim>
				</port>
				<port id="1" precision="FP32">
					<dim>256</dim>
					<dim>192</dim>
					<dim>3</dim>
					<dim>3</dim>
				</port>
			</input>
			<output>
				<port id="2" precision="FP32">
					<dim>1</dim>
					<dim>256</dim>
					<dim>17</dim>
					<dim>17</dim>
				</port>
			</output>
		</layer>
		<layer id="31" name="data_add_2242822433" type="Const" version="opset1">
			<data element_type="f32" shape="1, 256, 1, 1" offset="2458592" size="1024" />
			<output>
				<port id="0" precision="FP32">
					<dim>1</dim>
					<dim>256</dim>
					<dim>1</dim>
					<dim>1</dim>
				</port>
			</output>
		</layer>
		<layer id="32" name="Conv2d_4b_3x3_BatchNorm/FusedBatchNormV3/variance/Fused_Add_" type="Add" version="opset1">
			<data auto_broadcast="numpy" />
			<input>
				<port id="0" precision="FP32">
					<dim>1</dim>
					<dim>256</dim>
					<dim>17</dim>
					<dim>17</dim>
				</port>
				<port id="1" precision="FP32">
					<dim>1</dim>
					<dim>256</dim>
					<dim>1</dim>
					<dim>1</dim>
				</port>
			</input>
			<output>
				<port id="2" precision="FP32" names="Conv2d_4b_3x3_BatchNorm/FusedBatchNormV3:0">
					<dim>1</dim>
					<dim>256</dim>
					<dim>17</dim>
					<dim>17</dim>
				</port>
			</output>
		</layer>
		<layer id="33" name="Conv2d_4b_3x3_Activation/Relu" type="ReLU" version="opset1">
			<input>
				<port id="0" precision="FP32">
					<dim>1</dim>
					<dim>256</dim>
					<dim>17</dim>
					<dim>17</dim>
				</port>
			</input>
			<output>
				<port id="1" precision="FP32" names="Conv2d_4b_3x3_Activation/Relu:0">
					<dim>1</dim>
					<dim>256</dim>
					<dim>17</dim>
					<dim>17</dim>
				</port>
			</output>
		</layer>
		<layer id="34" name="Block35_1_Branch_0_Conv2d_1x1_BatchNorm/FusedBatchNormV3/mean/Fused_Mul__copy" type="Const" version="opset1">
			<data element_type="f32" shape="32, 256, 1, 1" offset="2459616" size="32768" />
			<output>
				<port id="0" precision="FP32" names="Block35_1_Branch_0_Conv2d_1x1/Conv2D/ReadVariableOp:0">
					<dim>32</dim>
					<dim>256</dim>
					<dim>1</dim>
					<dim>1</dim>
				</port>
			</output>
		</layer>
		<layer id="35" name="Block35_1_Branch_0_Conv2d_1x1/Conv2D" type="Convolution" version="opset1">
			<data strides="1, 1" dilations="1, 1" pads_begin="0, 0" pads_end="0, 0" auto_pad="same_upper" />
			<input>
				<port id="0" precision="FP32">
					<dim>1</dim>
					<dim>256</dim>
					<dim>17</dim>
					<dim>17</dim>
				</port>
				<port id="1" precision="FP32">
					<dim>32</dim>
					<dim>256</dim>
					<dim>1</dim>
					<dim>1</dim>
				</port>
			</input>
			<output>
				<port id="2" precision="FP32">
					<dim>1</dim>
					<dim>32</dim>
					<dim>17</dim>
					<dim>17</dim>
				</port>
			</output>
		</layer>
		<layer id="36" name="data_add_2243622441" type="Const" version="opset1">
			<data element_type="f32" shape="1, 32, 1, 1" offset="2492384" size="128" />
			<output>
				<port id="0" precision="FP32">
					<dim>1</dim>
					<dim>32</dim>
					<dim>1</dim>
					<dim>1</dim>
				</port>
			</output>
		</layer>
		<layer id="37" name="Block35_1_Branch_0_Conv2d_1x1_BatchNorm/FusedBatchNormV3/variance/Fused_Add_" type="Add" version="opset1">
			<data auto_broadcast="numpy" />
			<input>
				<port id="0" precision="FP32">
					<dim>1</dim>
					<dim>32</dim>
					<dim>17</dim>
					<dim>17</dim>
				</port>
				<port id="1" precision="FP32">
					<dim>1</dim>
					<dim>32</dim>
					<dim>1</dim>
					<dim>1</dim>
				</port>
			</input>
			<output>
				<port id="2" precision="FP32" names="Block35_1_Branch_0_Conv2d_1x1_BatchNorm/FusedBatchNormV3:0">
					<dim>1</dim>
					<dim>32</dim>
					<dim>17</dim>
					<dim>17</dim>
				</port>
			</output>
		</layer>
		<layer id="38" name="Block35_1_Branch_0_Conv2d_1x1_Activation/Relu" type="ReLU" version="opset1">
			<input>
				<port id="0" precision="FP32">
					<dim>1</dim>
					<dim>32</dim>
					<dim>17</dim>
					<dim>17</dim>
				</port>
			</input>
			<output>
				<port id="1" precision="FP32" names="Block35_1_Branch_0_Conv2d_1x1_Activation/Relu:0">
					<dim>1</dim>
					<dim>32</dim>
					<dim>17</dim>
					<dim>17</dim>
				</port>
			</output>
		</layer>
		<layer id="39" name="Block35_1_Branch_1_Conv2d_0a_1x1_BatchNorm/FusedBatchNormV3/mean/Fused_Mul__copy" type="Const" version="opset1">
			<data element_type="f32" shape="32, 256, 1, 1" offset="2492512" size="32768" />
			<output>
				<port id="0" precision="FP32" names="Block35_1_Branch_1_Conv2d_0a_1x1/Conv2D/ReadVariableOp:0">
					<dim>32</dim>
					<dim>256</dim>
					<dim>1</dim>
					<dim>1</dim>
				</port>
			</output>
		</layer>
		<layer id="40" name="Block35_1_Branch_1_Conv2d_0a_1x1/Conv2D" type="Convolution" version="opset1">
			<data strides="1, 1" dilations="1, 1" pads_begin="0, 0" pads_end="0, 0" auto_pad="same_upper" />
			<input>
				<port id="0" precision="FP32">
					<dim>1</dim>
					<dim>256</dim>
					<dim>17</dim>
					<dim>17</dim>
				</port>
				<port id="1" precision="FP32">
					<dim>32</dim>
					<dim>256</dim>
					<dim>1</dim>
					<dim>1</dim>
				</port>
			</input>
			<output>
				<port id="2" precision="FP32">
					<dim>1</dim>
					<dim>32</dim>
					<dim>17</dim>
					<dim>17</dim>
				</port>
			</output>
		</layer>
		<layer id="41" name="data_add_2244422449" type="Const" version="opset1">
			<data element_type="f32" shape="1, 32, 1, 1" offset="2525280" size="128" />
			<output>
				<port id="0" precision="FP32">
					<dim>1</dim>
					<dim>32</dim>
					<dim>1</dim>
					<dim>1</dim>
				</port>
			</output>
		</layer>
		<layer id="42" name="Block35_1_Branch_1_Conv2d_0a_1x1_BatchNorm/FusedBatchNormV3/variance/Fused_Add_" type="Add" version="opset1">
			<data auto_broadcast="numpy" />
			<input>
				<port id="0" precision="FP32">
					<dim>1</dim>
					<dim>32</dim>
					<dim>17</dim>
					<dim>17</dim>
				</port>
				<port id="1" precision="FP32">
					<dim>1</dim>
					<dim>32</dim>
					<dim>1</dim>
					<dim>1</dim>
				</port>
			</input>
			<output>
				<port id="2" precision="FP32" names="Block35_1_Branch_1_Conv2d_0a_1x1_BatchNorm/FusedBatchNormV3:0">
					<dim>1</dim>
					<dim>32</dim>
					<dim>17</dim>
					<dim>17</dim>
				</port>
			</output>
		</layer>
		<layer id="43" name="Block35_1_Branch_1_Conv2d_0a_1x1_Activation/Relu" type="ReLU" version="opset1">
			<input>
				<port id="0" precision="FP32">
					<dim>1</dim>
					<dim>32</dim>
					<dim>17</dim>
					<dim>17</dim>
				</port>
			</input>
			<output>
				<port id="1" precision="FP32" names="Block35_1_Branch_1_Conv2d_0a_1x1_Activation/Relu:0">
					<dim>1</dim>
					<dim>32</dim>
					<dim>17</dim>
					<dim>17</dim>
				</port>
			</output>
		</layer>
		<layer id="44" name="Block35_1_Branch_1_Conv2d_0b_3x3_BatchNorm/FusedBatchNormV3/mean/Fused_Mul__copy" type="Const" version="opset1">
			<data element_type="f32" shape="32, 32, 3, 3" offset="2525408" size="36864" />
			<output>
				<port id="0" precision="FP32" names="Block35_1_Branch_1_Conv2d_0b_3x3/Conv2D/ReadVariableOp:0">
					<dim>32</dim>
					<dim>32</dim>
					<dim>3</dim>
					<dim>3</dim>
				</port>
			</output>
		</layer>
		<layer id="45" name="Block35_1_Branch_1_Conv2d_0b_3x3/Conv2D" type="Convolution" version="opset1">
			<data strides="1, 1" dilations="1, 1" pads_begin="0, 0" pads_end="0, 0" auto_pad="same_upper" />
			<input>
				<port id="0" precision="FP32">
					<dim>1</dim>
					<dim>32</dim>
					<dim>17</dim>
					<dim>17</dim>
				</port>
				<port id="1" precision="FP32">
					<dim>32</dim>
					<dim>32</dim>
					<dim>3</dim>
					<dim>3</dim>
				</port>
			</input>
			<output>
				<port id="2" precision="FP32">
					<dim>1</dim>
					<dim>32</dim>
					<dim>17</dim>
					<dim>17</dim>
				</port>
			</output>
		</layer>
		<layer id="46" name="data_add_2245222457" type="Const" version="opset1">
			<data element_type="f32" shape="1, 32, 1, 1" offset="2562272" size="128" />
			<output>
				<port id="0" precision="FP32">
					<dim>1</dim>
					<dim>32</dim>
					<dim>1</dim>
					<dim>1</dim>
				</port>
			</output>
		</layer>
		<layer id="47" name="Block35_1_Branch_1_Conv2d_0b_3x3_BatchNorm/FusedBatchNormV3/variance/Fused_Add_" type="Add" version="opset1">
			<data auto_broadcast="numpy" />
			<input>
				<port id="0" precision="FP32">
					<dim>1</dim>
					<dim>32</dim>
					<dim>17</dim>
					<dim>17</dim>
				</port>
				<port id="1" precision="FP32">
					<dim>1</dim>
					<dim>32</dim>
					<dim>1</dim>
					<dim>1</dim>
				</port>
			</input>
			<output>
				<port id="2" precision="FP32" names="Block35_1_Branch_1_Conv2d_0b_3x3_BatchNorm/FusedBatchNormV3:0">
					<dim>1</dim>
					<dim>32</dim>
					<dim>17</dim>
					<dim>17</dim>
				</port>
			</output>
		</layer>
		<layer id="48" name="Block35_1_Branch_1_Conv2d_0b_3x3_Activation/Relu" type="ReLU" version="opset1">
			<input>
				<port id="0" precision="FP32">
					<dim>1</dim>
					<dim>32</dim>
					<dim>17</dim>
					<dim>17</dim>
				</port>
			</input>
			<output>
				<port id="1" precision="FP32" names="Block35_1_Branch_1_Conv2d_0b_3x3_Activation/Relu:0">
					<dim>1</dim>
					<dim>32</dim>
					<dim>17</dim>
					<dim>17</dim>
				</port>
			</output>
		</layer>
		<layer id="49" name="Block35_1_Branch_2_Conv2d_0a_1x1_BatchNorm/FusedBatchNormV3/mean/Fused_Mul__copy" type="Const" version="opset1">
			<data element_type="f32" shape="32, 256, 1, 1" offset="2562400" size="32768" />
			<output>
				<port id="0" precision="FP32" names="Block35_1_Branch_2_Conv2d_0a_1x1/Conv2D/ReadVariableOp:0">
					<dim>32</dim>
					<dim>256</dim>
					<dim>1</dim>
					<dim>1</dim>
				</port>
			</output>
		</layer>
		<layer id="50" name="Block35_1_Branch_2_Conv2d_0a_1x1/Conv2D" type="Convolution" version="opset1">
			<data strides="1, 1" dilations="1, 1" pads_begin="0, 0" pads_end="0, 0" auto_pad="same_upper" />
			<input>
				<port id="0" precision="FP32">
					<dim>1</dim>
					<dim>256</dim>
					<dim>17</dim>
					<dim>17</dim>
				</port>
				<port id="1" precision="FP32">
					<dim>32</dim>
					<dim>256</dim>
					<dim>1</dim>
					<dim>1</dim>
				</port>
			</input>
			<output>
				<port id="2" precision="FP32">
					<dim>1</dim>
					<dim>32</dim>
					<dim>17</dim>
					<dim>17</dim>
				</port>
			</output>
		</layer>
		<layer id="51" name="data_add_2246022465" type="Const" version="opset1">
			<data element_type="f32" shape="1, 32, 1, 1" offset="2595168" size="128" />
			<output>
				<port id="0" precision="FP32">
					<dim>1</dim>
					<dim>32</dim>
					<dim>1</dim>
					<dim>1</dim>
				</port>
			</output>
		</layer>
		<layer id="52" name="Block35_1_Branch_2_Conv2d_0a_1x1_BatchNorm/FusedBatchNormV3/variance/Fused_Add_" type="Add" version="opset1">
			<data auto_broadcast="numpy" />
			<input>
				<port id="0" precision="FP32">
					<dim>1</dim>
					<dim>32</dim>
					<dim>17</dim>
					<dim>17</dim>
				</port>
				<port id="1" precision="FP32">
					<dim>1</dim>
					<dim>32</dim>
					<dim>1</dim>
					<dim>1</dim>
				</port>
			</input>
			<output>
				<port id="2" precision="FP32" names="Block35_1_Branch_2_Conv2d_0a_1x1_BatchNorm/FusedBatchNormV3:0">
					<dim>1</dim>
					<dim>32</dim>
					<dim>17</dim>
					<dim>17</dim>
				</port>
			</output>
		</layer>
		<layer id="53" name="Block35_1_Branch_2_Conv2d_0a_1x1_Activation/Relu" type="ReLU" version="opset1">
			<input>
				<port id="0" precision="FP32">
					<dim>1</dim>
					<dim>32</dim>
					<dim>17</dim>
					<dim>17</dim>
				</port>
			</input>
			<output>
				<port id="1" precision="FP32" names="Block35_1_Branch_2_Conv2d_0a_1x1_Activation/Relu:0">
					<dim>1</dim>
					<dim>32</dim>
					<dim>17</dim>
					<dim>17</dim>
				</port>
			</output>
		</layer>
		<layer id="54" name="Block35_1_Branch_2_Conv2d_0b_3x3_BatchNorm/FusedBatchNormV3/mean/Fused_Mul__copy" type="Const" version="opset1">
			<data element_type="f32" shape="32, 32, 3, 3" offset="2595296" size="36864" />
			<output>
				<port id="0" precision="FP32" names="Block35_1_Branch_2_Conv2d_0b_3x3/Conv2D/ReadVariableOp:0">
					<dim>32</dim>
					<dim>32</dim>
					<dim>3</dim>
					<dim>3</dim>
				</port>
			</output>
		</layer>
		<layer id="55" name="Block35_1_Branch_2_Conv2d_0b_3x3/Conv2D" type="Convolution" version="opset1">
			<data strides="1, 1" dilations="1, 1" pads_begin="0, 0" pads_end="0, 0" auto_pad="same_upper" />
			<input>
				<port id="0" precision="FP32">
					<dim>1</dim>
					<dim>32</dim>
					<dim>17</dim>
					<dim>17</dim>
				</port>
				<port id="1" precision="FP32">
					<dim>32</dim>
					<dim>32</dim>
					<dim>3</dim>
					<dim>3</dim>
				</port>
			</input>
			<output>
				<port id="2" precision="FP32">
					<dim>1</dim>
					<dim>32</dim>
					<dim>17</dim>
					<dim>17</dim>
				</port>
			</output>
		</layer>
		<layer id="56" name="data_add_2246822473" type="Const" version="opset1">
			<data element_type="f32" shape="1, 32, 1, 1" offset="2632160" size="128" />
			<output>
				<port id="0" precision="FP32">
					<dim>1</dim>
					<dim>32</dim>
					<dim>1</dim>
					<dim>1</dim>
				</port>
			</output>
		</layer>
		<layer id="57" name="Block35_1_Branch_2_Conv2d_0b_3x3_BatchNorm/FusedBatchNormV3/variance/Fused_Add_" type="Add" version="opset1">
			<data auto_broadcast="numpy" />
			<input>
				<port id="0" precision="FP32">
					<dim>1</dim>
					<dim>32</dim>
					<dim>17</dim>
					<dim>17</dim>
				</port>
				<port id="1" precision="FP32">
					<dim>1</dim>
					<dim>32</dim>
					<dim>1</dim>
					<dim>1</dim>
				</port>
			</input>
			<output>
				<port id="2" precision="FP32" names="Block35_1_Branch_2_Conv2d_0b_3x3_BatchNorm/FusedBatchNormV3:0">
					<dim>1</dim>
					<dim>32</dim>
					<dim>17</dim>
					<dim>17</dim>
				</port>
			</output>
		</layer>
		<layer id="58" name="Block35_1_Branch_2_Conv2d_0b_3x3_Activation/Relu" type="ReLU" version="opset1">
			<input>
				<port id="0" precision="FP32">
					<dim>1</dim>
					<dim>32</dim>
					<dim>17</dim>
					<dim>17</dim>
				</port>
			</input>
			<output>
				<port id="1" precision="FP32" names="Block35_1_Branch_2_Conv2d_0b_3x3_Activation/Relu:0">
					<dim>1</dim>
					<dim>32</dim>
					<dim>17</dim>
					<dim>17</dim>
				</port>
			</output>
		</layer>
		<layer id="59" name="Block35_1_Branch_2_Conv2d_0c_3x3_BatchNorm/FusedBatchNormV3/mean/Fused_Mul__copy" type="Const" version="opset1">
			<data element_type="f32" shape="32, 32, 3, 3" offset="2632288" size="36864" />
			<output>
				<port id="0" precision="FP32" names="Block35_1_Branch_2_Conv2d_0c_3x3/Conv2D/ReadVariableOp:0">
					<dim>32</dim>
					<dim>32</dim>
					<dim>3</dim>
					<dim>3</dim>
				</port>
			</output>
		</layer>
		<layer id="60" name="Block35_1_Branch_2_Conv2d_0c_3x3/Conv2D" type="Convolution" version="opset1">
			<data strides="1, 1" dilations="1, 1" pads_begin="0, 0" pads_end="0, 0" auto_pad="same_upper" />
			<input>
				<port id="0" precision="FP32">
					<dim>1</dim>
					<dim>32</dim>
					<dim>17</dim>
					<dim>17</dim>
				</port>
				<port id="1" precision="FP32">
					<dim>32</dim>
					<dim>32</dim>
					<dim>3</dim>
					<dim>3</dim>
				</port>
			</input>
			<output>
				<port id="2" precision="FP32">
					<dim>1</dim>
					<dim>32</dim>
					<dim>17</dim>
					<dim>17</dim>
				</port>
			</output>
		</layer>
		<layer id="61" name="data_add_2247622481" type="Const" version="opset1">
			<data element_type="f32" shape="1, 32, 1, 1" offset="2669152" size="128" />
			<output>
				<port id="0" precision="FP32">
					<dim>1</dim>
					<dim>32</dim>
					<dim>1</dim>
					<dim>1</dim>
				</port>
			</output>
		</layer>
		<layer id="62" name="Block35_1_Branch_2_Conv2d_0c_3x3_BatchNorm/FusedBatchNormV3/variance/Fused_Add_" type="Add" version="opset1">
			<data auto_broadcast="numpy" />
			<input>
				<port id="0" precision="FP32">
					<dim>1</dim>
					<dim>32</dim>
					<dim>17</dim>
					<dim>17</dim>
				</port>
				<port id="1" precision="FP32">
					<dim>1</dim>
					<dim>32</dim>
					<dim>1</dim>
					<dim>1</dim>
				</port>
			</input>
			<output>
				<port id="2" precision="FP32" names="Block35_1_Branch_2_Conv2d_0c_3x3_BatchNorm/FusedBatchNormV3:0">
					<dim>1</dim>
					<dim>32</dim>
					<dim>17</dim>
					<dim>17</dim>
				</port>
			</output>
		</layer>
		<layer id="63" name="Block35_1_Branch_2_Conv2d_0c_3x3_Activation/Relu" type="ReLU" version="opset1">
			<input>
				<port id="0" precision="FP32">
					<dim>1</dim>
					<dim>32</dim>
					<dim>17</dim>
					<dim>17</dim>
				</port>
			</input>
			<output>
				<port id="1" precision="FP32" names="Block35_1_Branch_2_Conv2d_0c_3x3_Activation/Relu:0">
					<dim>1</dim>
					<dim>32</dim>
					<dim>17</dim>
					<dim>17</dim>
				</port>
			</output>
		</layer>
		<layer id="64" name="Block35_1_Concatenate/concat" type="Concat" version="opset1">
			<data axis="1" />
			<input>
				<port id="0" precision="FP32">
					<dim>1</dim>
					<dim>32</dim>
					<dim>17</dim>
					<dim>17</dim>
				</port>
				<port id="1" precision="FP32">
					<dim>1</dim>
					<dim>32</dim>
					<dim>17</dim>
					<dim>17</dim>
				</port>
				<port id="2" precision="FP32">
					<dim>1</dim>
					<dim>32</dim>
					<dim>17</dim>
					<dim>17</dim>
				</port>
			</input>
			<output>
				<port id="3" precision="FP32" names="Block35_1_Concatenate/concat:0">
					<dim>1</dim>
					<dim>96</dim>
					<dim>17</dim>
					<dim>17</dim>
				</port>
			</output>
		</layer>
		<layer id="65" name="Block35_1_ScaleSum/mul/Fused_Mul__copy" type="Const" version="opset1">
			<data element_type="f32" shape="256, 96, 1, 1" offset="2669280" size="98304" />
			<output>
				<port id="0" precision="FP32" names="Block35_1_Conv2d_1x1/Conv2D/ReadVariableOp:0">
					<dim>256</dim>
					<dim>96</dim>
					<dim>1</dim>
					<dim>1</dim>
				</port>
			</output>
		</layer>
		<layer id="66" name="Block35_1_Conv2d_1x1/Conv2D" type="Convolution" version="opset1">
			<data strides="1, 1" dilations="1, 1" pads_begin="0, 0" pads_end="0, 0" auto_pad="same_upper" />
			<input>
				<port id="0" precision="FP32">
					<dim>1</dim>
					<dim>96</dim>
					<dim>17</dim>
					<dim>17</dim>
				</port>
				<port id="1" precision="FP32">
					<dim>256</dim>
					<dim>96</dim>
					<dim>1</dim>
					<dim>1</dim>
				</port>
			</input>
			<output>
				<port id="2" precision="FP32">
					<dim>1</dim>
					<dim>256</dim>
					<dim>17</dim>
					<dim>17</dim>
				</port>
			</output>
		</layer>
		<layer id="67" name="data_add_2248422489" type="Const" version="opset1">
			<data element_type="f32" shape="1, 256, 1, 1" offset="2767584" size="1024" />
			<output>
				<port id="0" precision="FP32">
					<dim>1</dim>
					<dim>256</dim>
					<dim>1</dim>
					<dim>1</dim>
				</port>
			</output>
		</layer>
		<layer id="68" name="Block35_1_Conv2d_1x1/BiasAdd/Add/Fused_Add_" type="Add" version="opset1">
			<data auto_broadcast="numpy" />
			<input>
				<port id="0" precision="FP32">
					<dim>1</dim>
					<dim>256</dim>
					<dim>17</dim>
					<dim>17</dim>
				</port>
				<port id="1" precision="FP32">
					<dim>1</dim>
					<dim>256</dim>
					<dim>1</dim>
					<dim>1</dim>
				</port>
			</input>
			<output>
				<port id="2" precision="FP32" names="Block35_1_ScaleSum/mul:0">
					<dim>1</dim>
					<dim>256</dim>
					<dim>17</dim>
					<dim>17</dim>
				</port>
			</output>
		</layer>
		<layer id="69" name="Block35_1_ScaleSum/add" type="Add" version="opset1">
			<data auto_broadcast="numpy" />
			<input>
				<port id="0" precision="FP32">
					<dim>1</dim>
					<dim>256</dim>
					<dim>17</dim>
					<dim>17</dim>
				</port>
				<port id="1" precision="FP32">
					<dim>1</dim>
					<dim>256</dim>
					<dim>17</dim>
					<dim>17</dim>
				</port>
			</input>
			<output>
				<port id="2" precision="FP32" names="Block35_1_ScaleSum/add:0">
					<dim>1</dim>
					<dim>256</dim>
					<dim>17</dim>
					<dim>17</dim>
				</port>
			</output>
		</layer>
		<layer id="70" name="Block35_1_Activation/Relu" type="ReLU" version="opset1">
			<input>
				<port id="0" precision="FP32">
					<dim>1</dim>
					<dim>256</dim>
					<dim>17</dim>
					<dim>17</dim>
				</port>
			</input>
			<output>
				<port id="1" precision="FP32" names="Block35_1_Activation/Relu:0">
					<dim>1</dim>
					<dim>256</dim>
					<dim>17</dim>
					<dim>17</dim>
				</port>
			</output>
		</layer>
		<layer id="71" name="Block35_2_Branch_0_Conv2d_1x1_BatchNorm/FusedBatchNormV3/mean/Fused_Mul__copy" type="Const" version="opset1">
			<data element_type="f32" shape="32, 256, 1, 1" offset="2768608" size="32768" />
			<output>
				<port id="0" precision="FP32" names="Block35_2_Branch_0_Conv2d_1x1/Conv2D/ReadVariableOp:0">
					<dim>32</dim>
					<dim>256</dim>
					<dim>1</dim>
					<dim>1</dim>
				</port>
			</output>
		</layer>
		<layer id="72" name="Block35_2_Branch_0_Conv2d_1x1/Conv2D" type="Convolution" version="opset1">
			<data strides="1, 1" dilations="1, 1" pads_begin="0, 0" pads_end="0, 0" auto_pad="same_upper" />
			<input>
				<port id="0" precision="FP32">
					<dim>1</dim>
					<dim>256</dim>
					<dim>17</dim>
					<dim>17</dim>
				</port>
				<port id="1" precision="FP32">
					<dim>32</dim>
					<dim>256</dim>
					<dim>1</dim>
					<dim>1</dim>
				</port>
			</input>
			<output>
				<port id="2" precision="FP32">
					<dim>1</dim>
					<dim>32</dim>
					<dim>17</dim>
					<dim>17</dim>
				</port>
			</output>
		</layer>
		<layer id="73" name="data_add_2249222497" type="Const" version="opset1">
			<data element_type="f32" shape="1, 32, 1, 1" offset="2801376" size="128" />
			<output>
				<port id="0" precision="FP32">
					<dim>1</dim>
					<dim>32</dim>
					<dim>1</dim>
					<dim>1</dim>
				</port>
			</output>
		</layer>
		<layer id="74" name="Block35_2_Branch_0_Conv2d_1x1_BatchNorm/FusedBatchNormV3/variance/Fused_Add_" type="Add" version="opset1">
			<data auto_broadcast="numpy" />
			<input>
				<port id="0" precision="FP32">
					<dim>1</dim>
					<dim>32</dim>
					<dim>17</dim>
					<dim>17</dim>
				</port>
				<port id="1" precision="FP32">
					<dim>1</dim>
					<dim>32</dim>
					<dim>1</dim>
					<dim>1</dim>
				</port>
			</input>
			<output>
				<port id="2" precision="FP32" names="Block35_2_Branch_0_Conv2d_1x1_BatchNorm/FusedBatchNormV3:0">
					<dim>1</dim>
					<dim>32</dim>
					<dim>17</dim>
					<dim>17</dim>
				</port>
			</output>
		</layer>
		<layer id="75" name="Block35_2_Branch_0_Conv2d_1x1_Activation/Relu" type="ReLU" version="opset1">
			<input>
				<port id="0" precision="FP32">
					<dim>1</dim>
					<dim>32</dim>
					<dim>17</dim>
					<dim>17</dim>
				</port>
			</input>
			<output>
				<port id="1" precision="FP32" names="Block35_2_Branch_0_Conv2d_1x1_Activation/Relu:0">
					<dim>1</dim>
					<dim>32</dim>
					<dim>17</dim>
					<dim>17</dim>
				</port>
			</output>
		</layer>
		<layer id="76" name="Block35_2_Branch_1_Conv2d_0a_1x1_BatchNorm/FusedBatchNormV3/mean/Fused_Mul__copy" type="Const" version="opset1">
			<data element_type="f32" shape="32, 256, 1, 1" offset="2801504" size="32768" />
			<output>
				<port id="0" precision="FP32" names="Block35_2_Branch_1_Conv2d_0a_1x1/Conv2D/ReadVariableOp:0">
					<dim>32</dim>
					<dim>256</dim>
					<dim>1</dim>
					<dim>1</dim>
				</port>
			</output>
		</layer>
		<layer id="77" name="Block35_2_Branch_1_Conv2d_0a_1x1/Conv2D" type="Convolution" version="opset1">
			<data strides="1, 1" dilations="1, 1" pads_begin="0, 0" pads_end="0, 0" auto_pad="same_upper" />
			<input>
				<port id="0" precision="FP32">
					<dim>1</dim>
					<dim>256</dim>
					<dim>17</dim>
					<dim>17</dim>
				</port>
				<port id="1" precision="FP32">
					<dim>32</dim>
					<dim>256</dim>
					<dim>1</dim>
					<dim>1</dim>
				</port>
			</input>
			<output>
				<port id="2" precision="FP32">
					<dim>1</dim>
					<dim>32</dim>
					<dim>17</dim>
					<dim>17</dim>
				</port>
			</output>
		</layer>
		<layer id="78" name="data_add_2250022505" type="Const" version="opset1">
			<data element_type="f32" shape="1, 32, 1, 1" offset="2834272" size="128" />
			<output>
				<port id="0" precision="FP32">
					<dim>1</dim>
					<dim>32</dim>
					<dim>1</dim>
					<dim>1</dim>
				</port>
			</output>
		</layer>
		<layer id="79" name="Block35_2_Branch_1_Conv2d_0a_1x1_BatchNorm/FusedBatchNormV3/variance/Fused_Add_" type="Add" version="opset1">
			<data auto_broadcast="numpy" />
			<input>
				<port id="0" precision="FP32">
					<dim>1</dim>
					<dim>32</dim>
					<dim>17</dim>
					<dim>17</dim>
				</port>
				<port id="1" precision="FP32">
					<dim>1</dim>
					<dim>32</dim>
					<dim>1</dim>
					<dim>1</dim>
				</port>
			</input>
			<output>
				<port id="2" precision="FP32" names="Block35_2_Branch_1_Conv2d_0a_1x1_BatchNorm/FusedBatchNormV3:0">
					<dim>1</dim>
					<dim>32</dim>
					<dim>17</dim>
					<dim>17</dim>
				</port>
			</output>
		</layer>
		<layer id="80" name="Block35_2_Branch_1_Conv2d_0a_1x1_Activation/Relu" type="ReLU" version="opset1">
			<input>
				<port id="0" precision="FP32">
					<dim>1</dim>
					<dim>32</dim>
					<dim>17</dim>
					<dim>17</dim>
				</port>
			</input>
			<output>
				<port id="1" precision="FP32" names="Block35_2_Branch_1_Conv2d_0a_1x1_Activation/Relu:0">
					<dim>1</dim>
					<dim>32</dim>
					<dim>17</dim>
					<dim>17</dim>
				</port>
			</output>
		</layer>
		<layer id="81" name="Block35_2_Branch_1_Conv2d_0b_3x3_BatchNorm/FusedBatchNormV3/mean/Fused_Mul__copy" type="Const" version="opset1">
			<data element_type="f32" shape="32, 32, 3, 3" offset="2834400" size="36864" />
			<output>
				<port id="0" precision="FP32" names="Block35_2_Branch_1_Conv2d_0b_3x3/Conv2D/ReadVariableOp:0">
					<dim>32</dim>
					<dim>32</dim>
					<dim>3</dim>
					<dim>3</dim>
				</port>
			</output>
		</layer>
		<layer id="82" name="Block35_2_Branch_1_Conv2d_0b_3x3/Conv2D" type="Convolution" version="opset1">
			<data strides="1, 1" dilations="1, 1" pads_begin="0, 0" pads_end="0, 0" auto_pad="same_upper" />
			<input>
				<port id="0" precision="FP32">
					<dim>1</dim>
					<dim>32</dim>
					<dim>17</dim>
					<dim>17</dim>
				</port>
				<port id="1" precision="FP32">
					<dim>32</dim>
					<dim>32</dim>
					<dim>3</dim>
					<dim>3</dim>
				</port>
			</input>
			<output>
				<port id="2" precision="FP32">
					<dim>1</dim>
					<dim>32</dim>
					<dim>17</dim>
					<dim>17</dim>
				</port>
			</output>
		</layer>
		<layer id="83" name="data_add_2250822513" type="Const" version="opset1">
			<data element_type="f32" shape="1, 32, 1, 1" offset="2871264" size="128" />
			<output>
				<port id="0" precision="FP32">
					<dim>1</dim>
					<dim>32</dim>
					<dim>1</dim>
					<dim>1</dim>
				</port>
			</output>
		</layer>
		<layer id="84" name="Block35_2_Branch_1_Conv2d_0b_3x3_BatchNorm/FusedBatchNormV3/variance/Fused_Add_" type="Add" version="opset1">
			<data auto_broadcast="numpy" />
			<input>
				<port id="0" precision="FP32">
					<dim>1</dim>
					<dim>32</dim>
					<dim>17</dim>
					<dim>17</dim>
				</port>
				<port id="1" precision="FP32">
					<dim>1</dim>
					<dim>32</dim>
					<dim>1</dim>
					<dim>1</dim>
				</port>
			</input>
			<output>
				<port id="2" precision="FP32" names="Block35_2_Branch_1_Conv2d_0b_3x3_BatchNorm/FusedBatchNormV3:0">
					<dim>1</dim>
					<dim>32</dim>
					<dim>17</dim>
					<dim>17</dim>
				</port>
			</output>
		</layer>
		<layer id="85" name="Block35_2_Branch_1_Conv2d_0b_3x3_Activation/Relu" type="ReLU" version="opset1">
			<input>
				<port id="0" precision="FP32">
					<dim>1</dim>
					<dim>32</dim>
					<dim>17</dim>
					<dim>17</dim>
				</port>
			</input>
			<output>
				<port id="1" precision="FP32" names="Block35_2_Branch_1_Conv2d_0b_3x3_Activation/Relu:0">
					<dim>1</dim>
					<dim>32</dim>
					<dim>17</dim>
					<dim>17</dim>
				</port>
			</output>
		</layer>
		<layer id="86" name="Block35_2_Branch_2_Conv2d_0a_1x1_BatchNorm/FusedBatchNormV3/mean/Fused_Mul__copy" type="Const" version="opset1">
			<data element_type="f32" shape="32, 256, 1, 1" offset="2871392" size="32768" />
			<output>
				<port id="0" precision="FP32" names="Block35_2_Branch_2_Conv2d_0a_1x1/Conv2D/ReadVariableOp:0">
					<dim>32</dim>
					<dim>256</dim>
					<dim>1</dim>
					<dim>1</dim>
				</port>
			</output>
		</layer>
		<layer id="87" name="Block35_2_Branch_2_Conv2d_0a_1x1/Conv2D" type="Convolution" version="opset1">
			<data strides="1, 1" dilations="1, 1" pads_begin="0, 0" pads_end="0, 0" auto_pad="same_upper" />
			<input>
				<port id="0" precision="FP32">
					<dim>1</dim>
					<dim>256</dim>
					<dim>17</dim>
					<dim>17</dim>
				</port>
				<port id="1" precision="FP32">
					<dim>32</dim>
					<dim>256</dim>
					<dim>1</dim>
					<dim>1</dim>
				</port>
			</input>
			<output>
				<port id="2" precision="FP32">
					<dim>1</dim>
					<dim>32</dim>
					<dim>17</dim>
					<dim>17</dim>
				</port>
			</output>
		</layer>
		<layer id="88" name="data_add_2251622521" type="Const" version="opset1">
			<data element_type="f32" shape="1, 32, 1, 1" offset="2904160" size="128" />
			<output>
				<port id="0" precision="FP32">
					<dim>1</dim>
					<dim>32</dim>
					<dim>1</dim>
					<dim>1</dim>
				</port>
			</output>
		</layer>
		<layer id="89" name="Block35_2_Branch_2_Conv2d_0a_1x1_BatchNorm/FusedBatchNormV3/variance/Fused_Add_" type="Add" version="opset1">
			<data auto_broadcast="numpy" />
			<input>
				<port id="0" precision="FP32">
					<dim>1</dim>
					<dim>32</dim>
					<dim>17</dim>
					<dim>17</dim>
				</port>
				<port id="1" precision="FP32">
					<dim>1</dim>
					<dim>32</dim>
					<dim>1</dim>
					<dim>1</dim>
				</port>
			</input>
			<output>
				<port id="2" precision="FP32" names="Block35_2_Branch_2_Conv2d_0a_1x1_BatchNorm/FusedBatchNormV3:0">
					<dim>1</dim>
					<dim>32</dim>
					<dim>17</dim>
					<dim>17</dim>
				</port>
			</output>
		</layer>
		<layer id="90" name="Block35_2_Branch_2_Conv2d_0a_1x1_Activation/Relu" type="ReLU" version="opset1">
			<input>
				<port id="0" precision="FP32">
					<dim>1</dim>
					<dim>32</dim>
					<dim>17</dim>
					<dim>17</dim>
				</port>
			</input>
			<output>
				<port id="1" precision="FP32" names="Block35_2_Branch_2_Conv2d_0a_1x1_Activation/Relu:0">
					<dim>1</dim>
					<dim>32</dim>
					<dim>17</dim>
					<dim>17</dim>
				</port>
			</output>
		</layer>
		<layer id="91" name="Block35_2_Branch_2_Conv2d_0b_3x3_BatchNorm/FusedBatchNormV3/mean/Fused_Mul__copy" type="Const" version="opset1">
			<data element_type="f32" shape="32, 32, 3, 3" offset="2904288" size="36864" />
			<output>
				<port id="0" precision="FP32" names="Block35_2_Branch_2_Conv2d_0b_3x3/Conv2D/ReadVariableOp:0">
					<dim>32</dim>
					<dim>32</dim>
					<dim>3</dim>
					<dim>3</dim>
				</port>
			</output>
		</layer>
		<layer id="92" name="Block35_2_Branch_2_Conv2d_0b_3x3/Conv2D" type="Convolution" version="opset1">
			<data strides="1, 1" dilations="1, 1" pads_begin="0, 0" pads_end="0, 0" auto_pad="same_upper" />
			<input>
				<port id="0" precision="FP32">
					<dim>1</dim>
					<dim>32</dim>
					<dim>17</dim>
					<dim>17</dim>
				</port>
				<port id="1" precision="FP32">
					<dim>32</dim>
					<dim>32</dim>
					<dim>3</dim>
					<dim>3</dim>
				</port>
			</input>
			<output>
				<port id="2" precision="FP32">
					<dim>1</dim>
					<dim>32</dim>
					<dim>17</dim>
					<dim>17</dim>
				</port>
			</output>
		</layer>
		<layer id="93" name="data_add_2252422529" type="Const" version="opset1">
			<data element_type="f32" shape="1, 32, 1, 1" offset="2941152" size="128" />
			<output>
				<port id="0" precision="FP32">
					<dim>1</dim>
					<dim>32</dim>
					<dim>1</dim>
					<dim>1</dim>
				</port>
			</output>
		</layer>
		<layer id="94" name="Block35_2_Branch_2_Conv2d_0b_3x3_BatchNorm/FusedBatchNormV3/variance/Fused_Add_" type="Add" version="opset1">
			<data auto_broadcast="numpy" />
			<input>
				<port id="0" precision="FP32">
					<dim>1</dim>
					<dim>32</dim>
					<dim>17</dim>
					<dim>17</dim>
				</port>
				<port id="1" precision="FP32">
					<dim>1</dim>
					<dim>32</dim>
					<dim>1</dim>
					<dim>1</dim>
				</port>
			</input>
			<output>
				<port id="2" precision="FP32" names="Block35_2_Branch_2_Conv2d_0b_3x3_BatchNorm/FusedBatchNormV3:0">
					<dim>1</dim>
					<dim>32</dim>
					<dim>17</dim>
					<dim>17</dim>
				</port>
			</output>
		</layer>
		<layer id="95" name="Block35_2_Branch_2_Conv2d_0b_3x3_Activation/Relu" type="ReLU" version="opset1">
			<input>
				<port id="0" precision="FP32">
					<dim>1</dim>
					<dim>32</dim>
					<dim>17</dim>
					<dim>17</dim>
				</port>
			</input>
			<output>
				<port id="1" precision="FP32" names="Block35_2_Branch_2_Conv2d_0b_3x3_Activation/Relu:0">
					<dim>1</dim>
					<dim>32</dim>
					<dim>17</dim>
					<dim>17</dim>
				</port>
			</output>
		</layer>
		<layer id="96" name="Block35_2_Branch_2_Conv2d_0c_3x3_BatchNorm/FusedBatchNormV3/mean/Fused_Mul__copy" type="Const" version="opset1">
			<data element_type="f32" shape="32, 32, 3, 3" offset="2941280" size="36864" />
			<output>
				<port id="0" precision="FP32" names="Block35_2_Branch_2_Conv2d_0c_3x3/Conv2D/ReadVariableOp:0">
					<dim>32</dim>
					<dim>32</dim>
					<dim>3</dim>
					<dim>3</dim>
				</port>
			</output>
		</layer>
		<layer id="97" name="Block35_2_Branch_2_Conv2d_0c_3x3/Conv2D" type="Convolution" version="opset1">
			<data strides="1, 1" dilations="1, 1" pads_begin="0, 0" pads_end="0, 0" auto_pad="same_upper" />
			<input>
				<port id="0" precision="FP32">
					<dim>1</dim>
					<dim>32</dim>
					<dim>17</dim>
					<dim>17</dim>
				</port>
				<port id="1" precision="FP32">
					<dim>32</dim>
					<dim>32</dim>
					<dim>3</dim>
					<dim>3</dim>
				</port>
			</input>
			<output>
				<port id="2" precision="FP32">
					<dim>1</dim>
					<dim>32</dim>
					<dim>17</dim>
					<dim>17</dim>
				</port>
			</output>
		</layer>
		<layer id="98" name="data_add_2253222537" type="Const" version="opset1">
			<data element_type="f32" shape="1, 32, 1, 1" offset="2978144" size="128" />
			<output>
				<port id="0" precision="FP32">
					<dim>1</dim>
					<dim>32</dim>
					<dim>1</dim>
					<dim>1</dim>
				</port>
			</output>
		</layer>
		<layer id="99" name="Block35_2_Branch_2_Conv2d_0c_3x3_BatchNorm/FusedBatchNormV3/variance/Fused_Add_" type="Add" version="opset1">
			<data auto_broadcast="numpy" />
			<input>
				<port id="0" precision="FP32">
					<dim>1</dim>
					<dim>32</dim>
					<dim>17</dim>
					<dim>17</dim>
				</port>
				<port id="1" precision="FP32">
					<dim>1</dim>
					<dim>32</dim>
					<dim>1</dim>
					<dim>1</dim>
				</port>
			</input>
			<output>
				<port id="2" precision="FP32" names="Block35_2_Branch_2_Conv2d_0c_3x3_BatchNorm/FusedBatchNormV3:0">
					<dim>1</dim>
					<dim>32</dim>
					<dim>17</dim>
					<dim>17</dim>
				</port>
			</output>
		</layer>
		<layer id="100" name="Block35_2_Branch_2_Conv2d_0c_3x3_Activation/Relu" type="ReLU" version="opset1">
			<input>
				<port id="0" precision="FP32">
					<dim>1</dim>
					<dim>32</dim>
					<dim>17</dim>
					<dim>17</dim>
				</port>
			</input>
			<output>
				<port id="1" precision="FP32" names="Block35_2_Branch_2_Conv2d_0c_3x3_Activation/Relu:0">
					<dim>1</dim>
					<dim>32</dim>
					<dim>17</dim>
					<dim>17</dim>
				</port>
			</output>
		</layer>
		<layer id="101" name="Block35_2_Concatenate/concat" type="Concat" version="opset1">
			<data axis="1" />
			<input>
				<port id="0" precision="FP32">
					<dim>1</dim>
					<dim>32</dim>
					<dim>17</dim>
					<dim>17</dim>
				</port>
				<port id="1" precision="FP32">
					<dim>1</dim>
					<dim>32</dim>
					<dim>17</dim>
					<dim>17</dim>
				</port>
				<port id="2" precision="FP32">
					<dim>1</dim>
					<dim>32</dim>
					<dim>17</dim>
					<dim>17</dim>
				</port>
			</input>
			<output>
				<port id="3" precision="FP32" names="Block35_2_Concatenate/concat:0">
					<dim>1</dim>
					<dim>96</dim>
					<dim>17</dim>
					<dim>17</dim>
				</port>
			</output>
		</layer>
		<layer id="102" name="Block35_2_ScaleSum/mul/Fused_Mul__copy" type="Const" version="opset1">
			<data element_type="f32" shape="256, 96, 1, 1" offset="2978272" size="98304" />
			<output>
				<port id="0" precision="FP32" names="Block35_2_Conv2d_1x1/Conv2D/ReadVariableOp:0">
					<dim>256</dim>
					<dim>96</dim>
					<dim>1</dim>
					<dim>1</dim>
				</port>
			</output>
		</layer>
		<layer id="103" name="Block35_2_Conv2d_1x1/Conv2D" type="Convolution" version="opset1">
			<data strides="1, 1" dilations="1, 1" pads_begin="0, 0" pads_end="0, 0" auto_pad="same_upper" />
			<input>
				<port id="0" precision="FP32">
					<dim>1</dim>
					<dim>96</dim>
					<dim>17</dim>
					<dim>17</dim>
				</port>
				<port id="1" precision="FP32">
					<dim>256</dim>
					<dim>96</dim>
					<dim>1</dim>
					<dim>1</dim>
				</port>
			</input>
			<output>
				<port id="2" precision="FP32">
					<dim>1</dim>
					<dim>256</dim>
					<dim>17</dim>
					<dim>17</dim>
				</port>
			</output>
		</layer>
		<layer id="104" name="data_add_2254022545" type="Const" version="opset1">
			<data element_type="f32" shape="1, 256, 1, 1" offset="3076576" size="1024" />
			<output>
				<port id="0" precision="FP32">
					<dim>1</dim>
					<dim>256</dim>
					<dim>1</dim>
					<dim>1</dim>
				</port>
			</output>
		</layer>
		<layer id="105" name="Block35_2_Conv2d_1x1/BiasAdd/Add/Fused_Add_" type="Add" version="opset1">
			<data auto_broadcast="numpy" />
			<input>
				<port id="0" precision="FP32">
					<dim>1</dim>
					<dim>256</dim>
					<dim>17</dim>
					<dim>17</dim>
				</port>
				<port id="1" precision="FP32">
					<dim>1</dim>
					<dim>256</dim>
					<dim>1</dim>
					<dim>1</dim>
				</port>
			</input>
			<output>
				<port id="2" precision="FP32" names="Block35_2_ScaleSum/mul:0">
					<dim>1</dim>
					<dim>256</dim>
					<dim>17</dim>
					<dim>17</dim>
				</port>
			</output>
		</layer>
		<layer id="106" name="Block35_2_ScaleSum/add" type="Add" version="opset1">
			<data auto_broadcast="numpy" />
			<input>
				<port id="0" precision="FP32">
					<dim>1</dim>
					<dim>256</dim>
					<dim>17</dim>
					<dim>17</dim>
				</port>
				<port id="1" precision="FP32">
					<dim>1</dim>
					<dim>256</dim>
					<dim>17</dim>
					<dim>17</dim>
				</port>
			</input>
			<output>
				<port id="2" precision="FP32" names="Block35_2_ScaleSum/add:0">
					<dim>1</dim>
					<dim>256</dim>
					<dim>17</dim>
					<dim>17</dim>
				</port>
			</output>
		</layer>
		<layer id="107" name="Block35_2_Activation/Relu" type="ReLU" version="opset1">
			<input>
				<port id="0" precision="FP32">
					<dim>1</dim>
					<dim>256</dim>
					<dim>17</dim>
					<dim>17</dim>
				</port>
			</input>
			<output>
				<port id="1" precision="FP32" names="Block35_2_Activation/Relu:0">
					<dim>1</dim>
					<dim>256</dim>
					<dim>17</dim>
					<dim>17</dim>
				</port>
			</output>
		</layer>
		<layer id="108" name="Block35_3_Branch_0_Conv2d_1x1_BatchNorm/FusedBatchNormV3/mean/Fused_Mul__copy" type="Const" version="opset1">
			<data element_type="f32" shape="32, 256, 1, 1" offset="3077600" size="32768" />
			<output>
				<port id="0" precision="FP32" names="Block35_3_Branch_0_Conv2d_1x1/Conv2D/ReadVariableOp:0">
					<dim>32</dim>
					<dim>256</dim>
					<dim>1</dim>
					<dim>1</dim>
				</port>
			</output>
		</layer>
		<layer id="109" name="Block35_3_Branch_0_Conv2d_1x1/Conv2D" type="Convolution" version="opset1">
			<data strides="1, 1" dilations="1, 1" pads_begin="0, 0" pads_end="0, 0" auto_pad="same_upper" />
			<input>
				<port id="0" precision="FP32">
					<dim>1</dim>
					<dim>256</dim>
					<dim>17</dim>
					<dim>17</dim>
				</port>
				<port id="1" precision="FP32">
					<dim>32</dim>
					<dim>256</dim>
					<dim>1</dim>
					<dim>1</dim>
				</port>
			</input>
			<output>
				<port id="2" precision="FP32">
					<dim>1</dim>
					<dim>32</dim>
					<dim>17</dim>
					<dim>17</dim>
				</port>
			</output>
		</layer>
		<layer id="110" name="data_add_2254822553" type="Const" version="opset1">
			<data element_type="f32" shape="1, 32, 1, 1" offset="3110368" size="128" />
			<output>
				<port id="0" precision="FP32">
					<dim>1</dim>
					<dim>32</dim>
					<dim>1</dim>
					<dim>1</dim>
				</port>
			</output>
		</layer>
		<layer id="111" name="Block35_3_Branch_0_Conv2d_1x1_BatchNorm/FusedBatchNormV3/variance/Fused_Add_" type="Add" version="opset1">
			<data auto_broadcast="numpy" />
			<input>
				<port id="0" precision="FP32">
					<dim>1</dim>
					<dim>32</dim>
					<dim>17</dim>
					<dim>17</dim>
				</port>
				<port id="1" precision="FP32">
					<dim>1</dim>
					<dim>32</dim>
					<dim>1</dim>
					<dim>1</dim>
				</port>
			</input>
			<output>
				<port id="2" precision="FP32" names="Block35_3_Branch_0_Conv2d_1x1_BatchNorm/FusedBatchNormV3:0">
					<dim>1</dim>
					<dim>32</dim>
					<dim>17</dim>
					<dim>17</dim>
				</port>
			</output>
		</layer>
		<layer id="112" name="Block35_3_Branch_0_Conv2d_1x1_Activation/Relu" type="ReLU" version="opset1">
			<input>
				<port id="0" precision="FP32">
					<dim>1</dim>
					<dim>32</dim>
					<dim>17</dim>
					<dim>17</dim>
				</port>
			</input>
			<output>
				<port id="1" precision="FP32" names="Block35_3_Branch_0_Conv2d_1x1_Activation/Relu:0">
					<dim>1</dim>
					<dim>32</dim>
					<dim>17</dim>
					<dim>17</dim>
				</port>
			</output>
		</layer>
		<layer id="113" name="Block35_3_Branch_1_Conv2d_0a_1x1_BatchNorm/FusedBatchNormV3/mean/Fused_Mul__copy" type="Const" version="opset1">
			<data element_type="f32" shape="32, 256, 1, 1" offset="3110496" size="32768" />
			<output>
				<port id="0" precision="FP32" names="Block35_3_Branch_1_Conv2d_0a_1x1/Conv2D/ReadVariableOp:0">
					<dim>32</dim>
					<dim>256</dim>
					<dim>1</dim>
					<dim>1</dim>
				</port>
			</output>
		</layer>
		<layer id="114" name="Block35_3_Branch_1_Conv2d_0a_1x1/Conv2D" type="Convolution" version="opset1">
			<data strides="1, 1" dilations="1, 1" pads_begin="0, 0" pads_end="0, 0" auto_pad="same_upper" />
			<input>
				<port id="0" precision="FP32">
					<dim>1</dim>
					<dim>256</dim>
					<dim>17</dim>
					<dim>17</dim>
				</port>
				<port id="1" precision="FP32">
					<dim>32</dim>
					<dim>256</dim>
					<dim>1</dim>
					<dim>1</dim>
				</port>
			</input>
			<output>
				<port id="2" precision="FP32">
					<dim>1</dim>
					<dim>32</dim>
					<dim>17</dim>
					<dim>17</dim>
				</port>
			</output>
		</layer>
		<layer id="115" name="data_add_2255622561" type="Const" version="opset1">
			<data element_type="f32" shape="1, 32, 1, 1" offset="3143264" size="128" />
			<output>
				<port id="0" precision="FP32">
					<dim>1</dim>
					<dim>32</dim>
					<dim>1</dim>
					<dim>1</dim>
				</port>
			</output>
		</layer>
		<layer id="116" name="Block35_3_Branch_1_Conv2d_0a_1x1_BatchNorm/FusedBatchNormV3/variance/Fused_Add_" type="Add" version="opset1">
			<data auto_broadcast="numpy" />
			<input>
				<port id="0" precision="FP32">
					<dim>1</dim>
					<dim>32</dim>
					<dim>17</dim>
					<dim>17</dim>
				</port>
				<port id="1" precision="FP32">
					<dim>1</dim>
					<dim>32</dim>
					<dim>1</dim>
					<dim>1</dim>
				</port>
			</input>
			<output>
				<port id="2" precision="FP32" names="Block35_3_Branch_1_Conv2d_0a_1x1_BatchNorm/FusedBatchNormV3:0">
					<dim>1</dim>
					<dim>32</dim>
					<dim>17</dim>
					<dim>17</dim>
				</port>
			</output>
		</layer>
		<layer id="117" name="Block35_3_Branch_1_Conv2d_0a_1x1_Activation/Relu" type="ReLU" version="opset1">
			<input>
				<port id="0" precision="FP32">
					<dim>1</dim>
					<dim>32</dim>
					<dim>17</dim>
					<dim>17</dim>
				</port>
			</input>
			<output>
				<port id="1" precision="FP32" names="Block35_3_Branch_1_Conv2d_0a_1x1_Activation/Relu:0">
					<dim>1</dim>
					<dim>32</dim>
					<dim>17</dim>
					<dim>17</dim>
				</port>
			</output>
		</layer>
		<layer id="118" name="Block35_3_Branch_1_Conv2d_0b_3x3_BatchNorm/FusedBatchNormV3/mean/Fused_Mul__copy" type="Const" version="opset1">
			<data element_type="f32" shape="32, 32, 3, 3" offset="3143392" size="36864" />
			<output>
				<port id="0" precision="FP32" names="Block35_3_Branch_1_Conv2d_0b_3x3/Conv2D/ReadVariableOp:0">
					<dim>32</dim>
					<dim>32</dim>
					<dim>3</dim>
					<dim>3</dim>
				</port>
			</output>
		</layer>
		<layer id="119" name="Block35_3_Branch_1_Conv2d_0b_3x3/Conv2D" type="Convolution" version="opset1">
			<data strides="1, 1" dilations="1, 1" pads_begin="0, 0" pads_end="0, 0" auto_pad="same_upper" />
			<input>
				<port id="0" precision="FP32">
					<dim>1</dim>
					<dim>32</dim>
					<dim>17</dim>
					<dim>17</dim>
				</port>
				<port id="1" precision="FP32">
					<dim>32</dim>
					<dim>32</dim>
					<dim>3</dim>
					<dim>3</dim>
				</port>
			</input>
			<output>
				<port id="2" precision="FP32">
					<dim>1</dim>
					<dim>32</dim>
					<dim>17</dim>
					<dim>17</dim>
				</port>
			</output>
		</layer>
		<layer id="120" name="data_add_2256422569" type="Const" version="opset1">
			<data element_type="f32" shape="1, 32, 1, 1" offset="3180256" size="128" />
			<output>
				<port id="0" precision="FP32">
					<dim>1</dim>
					<dim>32</dim>
					<dim>1</dim>
					<dim>1</dim>
				</port>
			</output>
		</layer>
		<layer id="121" name="Block35_3_Branch_1_Conv2d_0b_3x3_BatchNorm/FusedBatchNormV3/variance/Fused_Add_" type="Add" version="opset1">
			<data auto_broadcast="numpy" />
			<input>
				<port id="0" precision="FP32">
					<dim>1</dim>
					<dim>32</dim>
					<dim>17</dim>
					<dim>17</dim>
				</port>
				<port id="1" precision="FP32">
					<dim>1</dim>
					<dim>32</dim>
					<dim>1</dim>
					<dim>1</dim>
				</port>
			</input>
			<output>
				<port id="2" precision="FP32" names="Block35_3_Branch_1_Conv2d_0b_3x3_BatchNorm/FusedBatchNormV3:0">
					<dim>1</dim>
					<dim>32</dim>
					<dim>17</dim>
					<dim>17</dim>
				</port>
			</output>
		</layer>
		<layer id="122" name="Block35_3_Branch_1_Conv2d_0b_3x3_Activation/Relu" type="ReLU" version="opset1">
			<input>
				<port id="0" precision="FP32">
					<dim>1</dim>
					<dim>32</dim>
					<dim>17</dim>
					<dim>17</dim>
				</port>
			</input>
			<output>
				<port id="1" precision="FP32" names="Block35_3_Branch_1_Conv2d_0b_3x3_Activation/Relu:0">
					<dim>1</dim>
					<dim>32</dim>
					<dim>17</dim>
					<dim>17</dim>
				</port>
			</output>
		</layer>
		<layer id="123" name="Block35_3_Branch_2_Conv2d_0a_1x1_BatchNorm/FusedBatchNormV3/mean/Fused_Mul__copy" type="Const" version="opset1">
			<data element_type="f32" shape="32, 256, 1, 1" offset="3180384" size="32768" />
			<output>
				<port id="0" precision="FP32" names="Block35_3_Branch_2_Conv2d_0a_1x1/Conv2D/ReadVariableOp:0">
					<dim>32</dim>
					<dim>256</dim>
					<dim>1</dim>
					<dim>1</dim>
				</port>
			</output>
		</layer>
		<layer id="124" name="Block35_3_Branch_2_Conv2d_0a_1x1/Conv2D" type="Convolution" version="opset1">
			<data strides="1, 1" dilations="1, 1" pads_begin="0, 0" pads_end="0, 0" auto_pad="same_upper" />
			<input>
				<port id="0" precision="FP32">
					<dim>1</dim>
					<dim>256</dim>
					<dim>17</dim>
					<dim>17</dim>
				</port>
				<port id="1" precision="FP32">
					<dim>32</dim>
					<dim>256</dim>
					<dim>1</dim>
					<dim>1</dim>
				</port>
			</input>
			<output>
				<port id="2" precision="FP32">
					<dim>1</dim>
					<dim>32</dim>
					<dim>17</dim>
					<dim>17</dim>
				</port>
			</output>
		</layer>
		<layer id="125" name="data_add_2257222577" type="Const" version="opset1">
			<data element_type="f32" shape="1, 32, 1, 1" offset="3213152" size="128" />
			<output>
				<port id="0" precision="FP32">
					<dim>1</dim>
					<dim>32</dim>
					<dim>1</dim>
					<dim>1</dim>
				</port>
			</output>
		</layer>
		<layer id="126" name="Block35_3_Branch_2_Conv2d_0a_1x1_BatchNorm/FusedBatchNormV3/variance/Fused_Add_" type="Add" version="opset1">
			<data auto_broadcast="numpy" />
			<input>
				<port id="0" precision="FP32">
					<dim>1</dim>
					<dim>32</dim>
					<dim>17</dim>
					<dim>17</dim>
				</port>
				<port id="1" precision="FP32">
					<dim>1</dim>
					<dim>32</dim>
					<dim>1</dim>
					<dim>1</dim>
				</port>
			</input>
			<output>
				<port id="2" precision="FP32" names="Block35_3_Branch_2_Conv2d_0a_1x1_BatchNorm/FusedBatchNormV3:0">
					<dim>1</dim>
					<dim>32</dim>
					<dim>17</dim>
					<dim>17</dim>
				</port>
			</output>
		</layer>
		<layer id="127" name="Block35_3_Branch_2_Conv2d_0a_1x1_Activation/Relu" type="ReLU" version="opset1">
			<input>
				<port id="0" precision="FP32">
					<dim>1</dim>
					<dim>32</dim>
					<dim>17</dim>
					<dim>17</dim>
				</port>
			</input>
			<output>
				<port id="1" precision="FP32" names="Block35_3_Branch_2_Conv2d_0a_1x1_Activation/Relu:0">
					<dim>1</dim>
					<dim>32</dim>
					<dim>17</dim>
					<dim>17</dim>
				</port>
			</output>
		</layer>
		<layer id="128" name="Block35_3_Branch_2_Conv2d_0b_3x3_BatchNorm/FusedBatchNormV3/mean/Fused_Mul__copy" type="Const" version="opset1">
			<data element_type="f32" shape="32, 32, 3, 3" offset="3213280" size="36864" />
			<output>
				<port id="0" precision="FP32" names="Block35_3_Branch_2_Conv2d_0b_3x3/Conv2D/ReadVariableOp:0">
					<dim>32</dim>
					<dim>32</dim>
					<dim>3</dim>
					<dim>3</dim>
				</port>
			</output>
		</layer>
		<layer id="129" name="Block35_3_Branch_2_Conv2d_0b_3x3/Conv2D" type="Convolution" version="opset1">
			<data strides="1, 1" dilations="1, 1" pads_begin="0, 0" pads_end="0, 0" auto_pad="same_upper" />
			<input>
				<port id="0" precision="FP32">
					<dim>1</dim>
					<dim>32</dim>
					<dim>17</dim>
					<dim>17</dim>
				</port>
				<port id="1" precision="FP32">
					<dim>32</dim>
					<dim>32</dim>
					<dim>3</dim>
					<dim>3</dim>
				</port>
			</input>
			<output>
				<port id="2" precision="FP32">
					<dim>1</dim>
					<dim>32</dim>
					<dim>17</dim>
					<dim>17</dim>
				</port>
			</output>
		</layer>
		<layer id="130" name="data_add_2258022585" type="Const" version="opset1">
			<data element_type="f32" shape="1, 32, 1, 1" offset="3250144" size="128" />
			<output>
				<port id="0" precision="FP32">
					<dim>1</dim>
					<dim>32</dim>
					<dim>1</dim>
					<dim>1</dim>
				</port>
			</output>
		</layer>
		<layer id="131" name="Block35_3_Branch_2_Conv2d_0b_3x3_BatchNorm/FusedBatchNormV3/variance/Fused_Add_" type="Add" version="opset1">
			<data auto_broadcast="numpy" />
			<input>
				<port id="0" precision="FP32">
					<dim>1</dim>
					<dim>32</dim>
					<dim>17</dim>
					<dim>17</dim>
				</port>
				<port id="1" precision="FP32">
					<dim>1</dim>
					<dim>32</dim>
					<dim>1</dim>
					<dim>1</dim>
				</port>
			</input>
			<output>
				<port id="2" precision="FP32" names="Block35_3_Branch_2_Conv2d_0b_3x3_BatchNorm/FusedBatchNormV3:0">
					<dim>1</dim>
					<dim>32</dim>
					<dim>17</dim>
					<dim>17</dim>
				</port>
			</output>
		</layer>
		<layer id="132" name="Block35_3_Branch_2_Conv2d_0b_3x3_Activation/Relu" type="ReLU" version="opset1">
			<input>
				<port id="0" precision="FP32">
					<dim>1</dim>
					<dim>32</dim>
					<dim>17</dim>
					<dim>17</dim>
				</port>
			</input>
			<output>
				<port id="1" precision="FP32" names="Block35_3_Branch_2_Conv2d_0b_3x3_Activation/Relu:0">
					<dim>1</dim>
					<dim>32</dim>
					<dim>17</dim>
					<dim>17</dim>
				</port>
			</output>
		</layer>
		<layer id="133" name="Block35_3_Branch_2_Conv2d_0c_3x3_BatchNorm/FusedBatchNormV3/mean/Fused_Mul__copy" type="Const" version="opset1">
			<data element_type="f32" shape="32, 32, 3, 3" offset="3250272" size="36864" />
			<output>
				<port id="0" precision="FP32" names="Block35_3_Branch_2_Conv2d_0c_3x3/Conv2D/ReadVariableOp:0">
					<dim>32</dim>
					<dim>32</dim>
					<dim>3</dim>
					<dim>3</dim>
				</port>
			</output>
		</layer>
		<layer id="134" name="Block35_3_Branch_2_Conv2d_0c_3x3/Conv2D" type="Convolution" version="opset1">
			<data strides="1, 1" dilations="1, 1" pads_begin="0, 0" pads_end="0, 0" auto_pad="same_upper" />
			<input>
				<port id="0" precision="FP32">
					<dim>1</dim>
					<dim>32</dim>
					<dim>17</dim>
					<dim>17</dim>
				</port>
				<port id="1" precision="FP32">
					<dim>32</dim>
					<dim>32</dim>
					<dim>3</dim>
					<dim>3</dim>
				</port>
			</input>
			<output>
				<port id="2" precision="FP32">
					<dim>1</dim>
					<dim>32</dim>
					<dim>17</dim>
					<dim>17</dim>
				</port>
			</output>
		</layer>
		<layer id="135" name="data_add_2258822593" type="Const" version="opset1">
			<data element_type="f32" shape="1, 32, 1, 1" offset="3287136" size="128" />
			<output>
				<port id="0" precision="FP32">
					<dim>1</dim>
					<dim>32</dim>
					<dim>1</dim>
					<dim>1</dim>
				</port>
			</output>
		</layer>
		<layer id="136" name="Block35_3_Branch_2_Conv2d_0c_3x3_BatchNorm/FusedBatchNormV3/variance/Fused_Add_" type="Add" version="opset1">
			<data auto_broadcast="numpy" />
			<input>
				<port id="0" precision="FP32">
					<dim>1</dim>
					<dim>32</dim>
					<dim>17</dim>
					<dim>17</dim>
				</port>
				<port id="1" precision="FP32">
					<dim>1</dim>
					<dim>32</dim>
					<dim>1</dim>
					<dim>1</dim>
				</port>
			</input>
			<output>
				<port id="2" precision="FP32" names="Block35_3_Branch_2_Conv2d_0c_3x3_BatchNorm/FusedBatchNormV3:0">
					<dim>1</dim>
					<dim>32</dim>
					<dim>17</dim>
					<dim>17</dim>
				</port>
			</output>
		</layer>
		<layer id="137" name="Block35_3_Branch_2_Conv2d_0c_3x3_Activation/Relu" type="ReLU" version="opset1">
			<input>
				<port id="0" precision="FP32">
					<dim>1</dim>
					<dim>32</dim>
					<dim>17</dim>
					<dim>17</dim>
				</port>
			</input>
			<output>
				<port id="1" precision="FP32" names="Block35_3_Branch_2_Conv2d_0c_3x3_Activation/Relu:0">
					<dim>1</dim>
					<dim>32</dim>
					<dim>17</dim>
					<dim>17</dim>
				</port>
			</output>
		</layer>
		<layer id="138" name="Block35_3_Concatenate/concat" type="Concat" version="opset1">
			<data axis="1" />
			<input>
				<port id="0" precision="FP32">
					<dim>1</dim>
					<dim>32</dim>
					<dim>17</dim>
					<dim>17</dim>
				</port>
				<port id="1" precision="FP32">
					<dim>1</dim>
					<dim>32</dim>
					<dim>17</dim>
					<dim>17</dim>
				</port>
				<port id="2" precision="FP32">
					<dim>1</dim>
					<dim>32</dim>
					<dim>17</dim>
					<dim>17</dim>
				</port>
			</input>
			<output>
				<port id="3" precision="FP32" names="Block35_3_Concatenate/concat:0">
					<dim>1</dim>
					<dim>96</dim>
					<dim>17</dim>
					<dim>17</dim>
				</port>
			</output>
		</layer>
		<layer id="139" name="Block35_3_ScaleSum/mul/Fused_Mul__copy" type="Const" version="opset1">
			<data element_type="f32" shape="256, 96, 1, 1" offset="3287264" size="98304" />
			<output>
				<port id="0" precision="FP32" names="Block35_3_Conv2d_1x1/Conv2D/ReadVariableOp:0">
					<dim>256</dim>
					<dim>96</dim>
					<dim>1</dim>
					<dim>1</dim>
				</port>
			</output>
		</layer>
		<layer id="140" name="Block35_3_Conv2d_1x1/Conv2D" type="Convolution" version="opset1">
			<data strides="1, 1" dilations="1, 1" pads_begin="0, 0" pads_end="0, 0" auto_pad="same_upper" />
			<input>
				<port id="0" precision="FP32">
					<dim>1</dim>
					<dim>96</dim>
					<dim>17</dim>
					<dim>17</dim>
				</port>
				<port id="1" precision="FP32">
					<dim>256</dim>
					<dim>96</dim>
					<dim>1</dim>
					<dim>1</dim>
				</port>
			</input>
			<output>
				<port id="2" precision="FP32">
					<dim>1</dim>
					<dim>256</dim>
					<dim>17</dim>
					<dim>17</dim>
				</port>
			</output>
		</layer>
		<layer id="141" name="data_add_2259622601" type="Const" version="opset1">
			<data element_type="f32" shape="1, 256, 1, 1" offset="3385568" size="1024" />
			<output>
				<port id="0" precision="FP32">
					<dim>1</dim>
					<dim>256</dim>
					<dim>1</dim>
					<dim>1</dim>
				</port>
			</output>
		</layer>
		<layer id="142" name="Block35_3_Conv2d_1x1/BiasAdd/Add/Fused_Add_" type="Add" version="opset1">
			<data auto_broadcast="numpy" />
			<input>
				<port id="0" precision="FP32">
					<dim>1</dim>
					<dim>256</dim>
					<dim>17</dim>
					<dim>17</dim>
				</port>
				<port id="1" precision="FP32">
					<dim>1</dim>
					<dim>256</dim>
					<dim>1</dim>
					<dim>1</dim>
				</port>
			</input>
			<output>
				<port id="2" precision="FP32" names="Block35_3_ScaleSum/mul:0">
					<dim>1</dim>
					<dim>256</dim>
					<dim>17</dim>
					<dim>17</dim>
				</port>
			</output>
		</layer>
		<layer id="143" name="Block35_3_ScaleSum/add" type="Add" version="opset1">
			<data auto_broadcast="numpy" />
			<input>
				<port id="0" precision="FP32">
					<dim>1</dim>
					<dim>256</dim>
					<dim>17</dim>
					<dim>17</dim>
				</port>
				<port id="1" precision="FP32">
					<dim>1</dim>
					<dim>256</dim>
					<dim>17</dim>
					<dim>17</dim>
				</port>
			</input>
			<output>
				<port id="2" precision="FP32" names="Block35_3_ScaleSum/add:0">
					<dim>1</dim>
					<dim>256</dim>
					<dim>17</dim>
					<dim>17</dim>
				</port>
			</output>
		</layer>
		<layer id="144" name="Block35_3_Activation/Relu" type="ReLU" version="opset1">
			<input>
				<port id="0" precision="FP32">
					<dim>1</dim>
					<dim>256</dim>
					<dim>17</dim>
					<dim>17</dim>
				</port>
			</input>
			<output>
				<port id="1" precision="FP32" names="Block35_3_Activation/Relu:0">
					<dim>1</dim>
					<dim>256</dim>
					<dim>17</dim>
					<dim>17</dim>
				</port>
			</output>
		</layer>
		<layer id="145" name="Block35_4_Branch_0_Conv2d_1x1_BatchNorm/FusedBatchNormV3/mean/Fused_Mul__copy" type="Const" version="opset1">
			<data element_type="f32" shape="32, 256, 1, 1" offset="3386592" size="32768" />
			<output>
				<port id="0" precision="FP32" names="Block35_4_Branch_0_Conv2d_1x1/Conv2D/ReadVariableOp:0">
					<dim>32</dim>
					<dim>256</dim>
					<dim>1</dim>
					<dim>1</dim>
				</port>
			</output>
		</layer>
		<layer id="146" name="Block35_4_Branch_0_Conv2d_1x1/Conv2D" type="Convolution" version="opset1">
			<data strides="1, 1" dilations="1, 1" pads_begin="0, 0" pads_end="0, 0" auto_pad="same_upper" />
			<input>
				<port id="0" precision="FP32">
					<dim>1</dim>
					<dim>256</dim>
					<dim>17</dim>
					<dim>17</dim>
				</port>
				<port id="1" precision="FP32">
					<dim>32</dim>
					<dim>256</dim>
					<dim>1</dim>
					<dim>1</dim>
				</port>
			</input>
			<output>
				<port id="2" precision="FP32">
					<dim>1</dim>
					<dim>32</dim>
					<dim>17</dim>
					<dim>17</dim>
				</port>
			</output>
		</layer>
		<layer id="147" name="data_add_2260422609" type="Const" version="opset1">
			<data element_type="f32" shape="1, 32, 1, 1" offset="3419360" size="128" />
			<output>
				<port id="0" precision="FP32">
					<dim>1</dim>
					<dim>32</dim>
					<dim>1</dim>
					<dim>1</dim>
				</port>
			</output>
		</layer>
		<layer id="148" name="Block35_4_Branch_0_Conv2d_1x1_BatchNorm/FusedBatchNormV3/variance/Fused_Add_" type="Add" version="opset1">
			<data auto_broadcast="numpy" />
			<input>
				<port id="0" precision="FP32">
					<dim>1</dim>
					<dim>32</dim>
					<dim>17</dim>
					<dim>17</dim>
				</port>
				<port id="1" precision="FP32">
					<dim>1</dim>
					<dim>32</dim>
					<dim>1</dim>
					<dim>1</dim>
				</port>
			</input>
			<output>
				<port id="2" precision="FP32" names="Block35_4_Branch_0_Conv2d_1x1_BatchNorm/FusedBatchNormV3:0">
					<dim>1</dim>
					<dim>32</dim>
					<dim>17</dim>
					<dim>17</dim>
				</port>
			</output>
		</layer>
		<layer id="149" name="Block35_4_Branch_0_Conv2d_1x1_Activation/Relu" type="ReLU" version="opset1">
			<input>
				<port id="0" precision="FP32">
					<dim>1</dim>
					<dim>32</dim>
					<dim>17</dim>
					<dim>17</dim>
				</port>
			</input>
			<output>
				<port id="1" precision="FP32" names="Block35_4_Branch_0_Conv2d_1x1_Activation/Relu:0">
					<dim>1</dim>
					<dim>32</dim>
					<dim>17</dim>
					<dim>17</dim>
				</port>
			</output>
		</layer>
		<layer id="150" name="Block35_4_Branch_1_Conv2d_0a_1x1_BatchNorm/FusedBatchNormV3/mean/Fused_Mul__copy" type="Const" version="opset1">
			<data element_type="f32" shape="32, 256, 1, 1" offset="3419488" size="32768" />
			<output>
				<port id="0" precision="FP32" names="Block35_4_Branch_1_Conv2d_0a_1x1/Conv2D/ReadVariableOp:0">
					<dim>32</dim>
					<dim>256</dim>
					<dim>1</dim>
					<dim>1</dim>
				</port>
			</output>
		</layer>
		<layer id="151" name="Block35_4_Branch_1_Conv2d_0a_1x1/Conv2D" type="Convolution" version="opset1">
			<data strides="1, 1" dilations="1, 1" pads_begin="0, 0" pads_end="0, 0" auto_pad="same_upper" />
			<input>
				<port id="0" precision="FP32">
					<dim>1</dim>
					<dim>256</dim>
					<dim>17</dim>
					<dim>17</dim>
				</port>
				<port id="1" precision="FP32">
					<dim>32</dim>
					<dim>256</dim>
					<dim>1</dim>
					<dim>1</dim>
				</port>
			</input>
			<output>
				<port id="2" precision="FP32">
					<dim>1</dim>
					<dim>32</dim>
					<dim>17</dim>
					<dim>17</dim>
				</port>
			</output>
		</layer>
		<layer id="152" name="data_add_2261222617" type="Const" version="opset1">
			<data element_type="f32" shape="1, 32, 1, 1" offset="3452256" size="128" />
			<output>
				<port id="0" precision="FP32">
					<dim>1</dim>
					<dim>32</dim>
					<dim>1</dim>
					<dim>1</dim>
				</port>
			</output>
		</layer>
		<layer id="153" name="Block35_4_Branch_1_Conv2d_0a_1x1_BatchNorm/FusedBatchNormV3/variance/Fused_Add_" type="Add" version="opset1">
			<data auto_broadcast="numpy" />
			<input>
				<port id="0" precision="FP32">
					<dim>1</dim>
					<dim>32</dim>
					<dim>17</dim>
					<dim>17</dim>
				</port>
				<port id="1" precision="FP32">
					<dim>1</dim>
					<dim>32</dim>
					<dim>1</dim>
					<dim>1</dim>
				</port>
			</input>
			<output>
				<port id="2" precision="FP32" names="Block35_4_Branch_1_Conv2d_0a_1x1_BatchNorm/FusedBatchNormV3:0">
					<dim>1</dim>
					<dim>32</dim>
					<dim>17</dim>
					<dim>17</dim>
				</port>
			</output>
		</layer>
		<layer id="154" name="Block35_4_Branch_1_Conv2d_0a_1x1_Activation/Relu" type="ReLU" version="opset1">
			<input>
				<port id="0" precision="FP32">
					<dim>1</dim>
					<dim>32</dim>
					<dim>17</dim>
					<dim>17</dim>
				</port>
			</input>
			<output>
				<port id="1" precision="FP32" names="Block35_4_Branch_1_Conv2d_0a_1x1_Activation/Relu:0">
					<dim>1</dim>
					<dim>32</dim>
					<dim>17</dim>
					<dim>17</dim>
				</port>
			</output>
		</layer>
		<layer id="155" name="Block35_4_Branch_1_Conv2d_0b_3x3_BatchNorm/FusedBatchNormV3/mean/Fused_Mul__copy" type="Const" version="opset1">
			<data element_type="f32" shape="32, 32, 3, 3" offset="3452384" size="36864" />
			<output>
				<port id="0" precision="FP32" names="Block35_4_Branch_1_Conv2d_0b_3x3/Conv2D/ReadVariableOp:0">
					<dim>32</dim>
					<dim>32</dim>
					<dim>3</dim>
					<dim>3</dim>
				</port>
			</output>
		</layer>
		<layer id="156" name="Block35_4_Branch_1_Conv2d_0b_3x3/Conv2D" type="Convolution" version="opset1">
			<data strides="1, 1" dilations="1, 1" pads_begin="0, 0" pads_end="0, 0" auto_pad="same_upper" />
			<input>
				<port id="0" precision="FP32">
					<dim>1</dim>
					<dim>32</dim>
					<dim>17</dim>
					<dim>17</dim>
				</port>
				<port id="1" precision="FP32">
					<dim>32</dim>
					<dim>32</dim>
					<dim>3</dim>
					<dim>3</dim>
				</port>
			</input>
			<output>
				<port id="2" precision="FP32">
					<dim>1</dim>
					<dim>32</dim>
					<dim>17</dim>
					<dim>17</dim>
				</port>
			</output>
		</layer>
		<layer id="157" name="data_add_2262022625" type="Const" version="opset1">
			<data element_type="f32" shape="1, 32, 1, 1" offset="3489248" size="128" />
			<output>
				<port id="0" precision="FP32">
					<dim>1</dim>
					<dim>32</dim>
					<dim>1</dim>
					<dim>1</dim>
				</port>
			</output>
		</layer>
		<layer id="158" name="Block35_4_Branch_1_Conv2d_0b_3x3_BatchNorm/FusedBatchNormV3/variance/Fused_Add_" type="Add" version="opset1">
			<data auto_broadcast="numpy" />
			<input>
				<port id="0" precision="FP32">
					<dim>1</dim>
					<dim>32</dim>
					<dim>17</dim>
					<dim>17</dim>
				</port>
				<port id="1" precision="FP32">
					<dim>1</dim>
					<dim>32</dim>
					<dim>1</dim>
					<dim>1</dim>
				</port>
			</input>
			<output>
				<port id="2" precision="FP32" names="Block35_4_Branch_1_Conv2d_0b_3x3_BatchNorm/FusedBatchNormV3:0">
					<dim>1</dim>
					<dim>32</dim>
					<dim>17</dim>
					<dim>17</dim>
				</port>
			</output>
		</layer>
		<layer id="159" name="Block35_4_Branch_1_Conv2d_0b_3x3_Activation/Relu" type="ReLU" version="opset1">
			<input>
				<port id="0" precision="FP32">
					<dim>1</dim>
					<dim>32</dim>
					<dim>17</dim>
					<dim>17</dim>
				</port>
			</input>
			<output>
				<port id="1" precision="FP32" names="Block35_4_Branch_1_Conv2d_0b_3x3_Activation/Relu:0">
					<dim>1</dim>
					<dim>32</dim>
					<dim>17</dim>
					<dim>17</dim>
				</port>
			</output>
		</layer>
		<layer id="160" name="Block35_4_Branch_2_Conv2d_0a_1x1_BatchNorm/FusedBatchNormV3/mean/Fused_Mul__copy" type="Const" version="opset1">
			<data element_type="f32" shape="32, 256, 1, 1" offset="3489376" size="32768" />
			<output>
				<port id="0" precision="FP32" names="Block35_4_Branch_2_Conv2d_0a_1x1/Conv2D/ReadVariableOp:0">
					<dim>32</dim>
					<dim>256</dim>
					<dim>1</dim>
					<dim>1</dim>
				</port>
			</output>
		</layer>
		<layer id="161" name="Block35_4_Branch_2_Conv2d_0a_1x1/Conv2D" type="Convolution" version="opset1">
			<data strides="1, 1" dilations="1, 1" pads_begin="0, 0" pads_end="0, 0" auto_pad="same_upper" />
			<input>
				<port id="0" precision="FP32">
					<dim>1</dim>
					<dim>256</dim>
					<dim>17</dim>
					<dim>17</dim>
				</port>
				<port id="1" precision="FP32">
					<dim>32</dim>
					<dim>256</dim>
					<dim>1</dim>
					<dim>1</dim>
				</port>
			</input>
			<output>
				<port id="2" precision="FP32">
					<dim>1</dim>
					<dim>32</dim>
					<dim>17</dim>
					<dim>17</dim>
				</port>
			</output>
		</layer>
		<layer id="162" name="data_add_2262822633" type="Const" version="opset1">
			<data element_type="f32" shape="1, 32, 1, 1" offset="3522144" size="128" />
			<output>
				<port id="0" precision="FP32">
					<dim>1</dim>
					<dim>32</dim>
					<dim>1</dim>
					<dim>1</dim>
				</port>
			</output>
		</layer>
		<layer id="163" name="Block35_4_Branch_2_Conv2d_0a_1x1_BatchNorm/FusedBatchNormV3/variance/Fused_Add_" type="Add" version="opset1">
			<data auto_broadcast="numpy" />
			<input>
				<port id="0" precision="FP32">
					<dim>1</dim>
					<dim>32</dim>
					<dim>17</dim>
					<dim>17</dim>
				</port>
				<port id="1" precision="FP32">
					<dim>1</dim>
					<dim>32</dim>
					<dim>1</dim>
					<dim>1</dim>
				</port>
			</input>
			<output>
				<port id="2" precision="FP32" names="Block35_4_Branch_2_Conv2d_0a_1x1_BatchNorm/FusedBatchNormV3:0">
					<dim>1</dim>
					<dim>32</dim>
					<dim>17</dim>
					<dim>17</dim>
				</port>
			</output>
		</layer>
		<layer id="164" name="Block35_4_Branch_2_Conv2d_0a_1x1_Activation/Relu" type="ReLU" version="opset1">
			<input>
				<port id="0" precision="FP32">
					<dim>1</dim>
					<dim>32</dim>
					<dim>17</dim>
					<dim>17</dim>
				</port>
			</input>
			<output>
				<port id="1" precision="FP32" names="Block35_4_Branch_2_Conv2d_0a_1x1_Activation/Relu:0">
					<dim>1</dim>
					<dim>32</dim>
					<dim>17</dim>
					<dim>17</dim>
				</port>
			</output>
		</layer>
		<layer id="165" name="Block35_4_Branch_2_Conv2d_0b_3x3_BatchNorm/FusedBatchNormV3/mean/Fused_Mul__copy" type="Const" version="opset1">
			<data element_type="f32" shape="32, 32, 3, 3" offset="3522272" size="36864" />
			<output>
				<port id="0" precision="FP32" names="Block35_4_Branch_2_Conv2d_0b_3x3/Conv2D/ReadVariableOp:0">
					<dim>32</dim>
					<dim>32</dim>
					<dim>3</dim>
					<dim>3</dim>
				</port>
			</output>
		</layer>
		<layer id="166" name="Block35_4_Branch_2_Conv2d_0b_3x3/Conv2D" type="Convolution" version="opset1">
			<data strides="1, 1" dilations="1, 1" pads_begin="0, 0" pads_end="0, 0" auto_pad="same_upper" />
			<input>
				<port id="0" precision="FP32">
					<dim>1</dim>
					<dim>32</dim>
					<dim>17</dim>
					<dim>17</dim>
				</port>
				<port id="1" precision="FP32">
					<dim>32</dim>
					<dim>32</dim>
					<dim>3</dim>
					<dim>3</dim>
				</port>
			</input>
			<output>
				<port id="2" precision="FP32">
					<dim>1</dim>
					<dim>32</dim>
					<dim>17</dim>
					<dim>17</dim>
				</port>
			</output>
		</layer>
		<layer id="167" name="data_add_2263622641" type="Const" version="opset1">
			<data element_type="f32" shape="1, 32, 1, 1" offset="3559136" size="128" />
			<output>
				<port id="0" precision="FP32">
					<dim>1</dim>
					<dim>32</dim>
					<dim>1</dim>
					<dim>1</dim>
				</port>
			</output>
		</layer>
		<layer id="168" name="Block35_4_Branch_2_Conv2d_0b_3x3_BatchNorm/FusedBatchNormV3/variance/Fused_Add_" type="Add" version="opset1">
			<data auto_broadcast="numpy" />
			<input>
				<port id="0" precision="FP32">
					<dim>1</dim>
					<dim>32</dim>
					<dim>17</dim>
					<dim>17</dim>
				</port>
				<port id="1" precision="FP32">
					<dim>1</dim>
					<dim>32</dim>
					<dim>1</dim>
					<dim>1</dim>
				</port>
			</input>
			<output>
				<port id="2" precision="FP32" names="Block35_4_Branch_2_Conv2d_0b_3x3_BatchNorm/FusedBatchNormV3:0">
					<dim>1</dim>
					<dim>32</dim>
					<dim>17</dim>
					<dim>17</dim>
				</port>
			</output>
		</layer>
		<layer id="169" name="Block35_4_Branch_2_Conv2d_0b_3x3_Activation/Relu" type="ReLU" version="opset1">
			<input>
				<port id="0" precision="FP32">
					<dim>1</dim>
					<dim>32</dim>
					<dim>17</dim>
					<dim>17</dim>
				</port>
			</input>
			<output>
				<port id="1" precision="FP32" names="Block35_4_Branch_2_Conv2d_0b_3x3_Activation/Relu:0">
					<dim>1</dim>
					<dim>32</dim>
					<dim>17</dim>
					<dim>17</dim>
				</port>
			</output>
		</layer>
		<layer id="170" name="Block35_4_Branch_2_Conv2d_0c_3x3_BatchNorm/FusedBatchNormV3/mean/Fused_Mul__copy" type="Const" version="opset1">
			<data element_type="f32" shape="32, 32, 3, 3" offset="3559264" size="36864" />
			<output>
				<port id="0" precision="FP32" names="Block35_4_Branch_2_Conv2d_0c_3x3/Conv2D/ReadVariableOp:0">
					<dim>32</dim>
					<dim>32</dim>
					<dim>3</dim>
					<dim>3</dim>
				</port>
			</output>
		</layer>
		<layer id="171" name="Block35_4_Branch_2_Conv2d_0c_3x3/Conv2D" type="Convolution" version="opset1">
			<data strides="1, 1" dilations="1, 1" pads_begin="0, 0" pads_end="0, 0" auto_pad="same_upper" />
			<input>
				<port id="0" precision="FP32">
					<dim>1</dim>
					<dim>32</dim>
					<dim>17</dim>
					<dim>17</dim>
				</port>
				<port id="1" precision="FP32">
					<dim>32</dim>
					<dim>32</dim>
					<dim>3</dim>
					<dim>3</dim>
				</port>
			</input>
			<output>
				<port id="2" precision="FP32">
					<dim>1</dim>
					<dim>32</dim>
					<dim>17</dim>
					<dim>17</dim>
				</port>
			</output>
		</layer>
		<layer id="172" name="data_add_2264422649" type="Const" version="opset1">
			<data element_type="f32" shape="1, 32, 1, 1" offset="3596128" size="128" />
			<output>
				<port id="0" precision="FP32">
					<dim>1</dim>
					<dim>32</dim>
					<dim>1</dim>
					<dim>1</dim>
				</port>
			</output>
		</layer>
		<layer id="173" name="Block35_4_Branch_2_Conv2d_0c_3x3_BatchNorm/FusedBatchNormV3/variance/Fused_Add_" type="Add" version="opset1">
			<data auto_broadcast="numpy" />
			<input>
				<port id="0" precision="FP32">
					<dim>1</dim>
					<dim>32</dim>
					<dim>17</dim>
					<dim>17</dim>
				</port>
				<port id="1" precision="FP32">
					<dim>1</dim>
					<dim>32</dim>
					<dim>1</dim>
					<dim>1</dim>
				</port>
			</input>
			<output>
				<port id="2" precision="FP32" names="Block35_4_Branch_2_Conv2d_0c_3x3_BatchNorm/FusedBatchNormV3:0">
					<dim>1</dim>
					<dim>32</dim>
					<dim>17</dim>
					<dim>17</dim>
				</port>
			</output>
		</layer>
		<layer id="174" name="Block35_4_Branch_2_Conv2d_0c_3x3_Activation/Relu" type="ReLU" version="opset1">
			<input>
				<port id="0" precision="FP32">
					<dim>1</dim>
					<dim>32</dim>
					<dim>17</dim>
					<dim>17</dim>
				</port>
			</input>
			<output>
				<port id="1" precision="FP32" names="Block35_4_Branch_2_Conv2d_0c_3x3_Activation/Relu:0">
					<dim>1</dim>
					<dim>32</dim>
					<dim>17</dim>
					<dim>17</dim>
				</port>
			</output>
		</layer>
		<layer id="175" name="Block35_4_Concatenate/concat" type="Concat" version="opset1">
			<data axis="1" />
			<input>
				<port id="0" precision="FP32">
					<dim>1</dim>
					<dim>32</dim>
					<dim>17</dim>
					<dim>17</dim>
				</port>
				<port id="1" precision="FP32">
					<dim>1</dim>
					<dim>32</dim>
					<dim>17</dim>
					<dim>17</dim>
				</port>
				<port id="2" precision="FP32">
					<dim>1</dim>
					<dim>32</dim>
					<dim>17</dim>
					<dim>17</dim>
				</port>
			</input>
			<output>
				<port id="3" precision="FP32" names="Block35_4_Concatenate/concat:0">
					<dim>1</dim>
					<dim>96</dim>
					<dim>17</dim>
					<dim>17</dim>
				</port>
			</output>
		</layer>
		<layer id="176" name="Block35_4_ScaleSum/mul/Fused_Mul__copy" type="Const" version="opset1">
			<data element_type="f32" shape="256, 96, 1, 1" offset="3596256" size="98304" />
			<output>
				<port id="0" precision="FP32" names="Block35_4_Conv2d_1x1/Conv2D/ReadVariableOp:0">
					<dim>256</dim>
					<dim>96</dim>
					<dim>1</dim>
					<dim>1</dim>
				</port>
			</output>
		</layer>
		<layer id="177" name="Block35_4_Conv2d_1x1/Conv2D" type="Convolution" version="opset1">
			<data strides="1, 1" dilations="1, 1" pads_begin="0, 0" pads_end="0, 0" auto_pad="same_upper" />
			<input>
				<port id="0" precision="FP32">
					<dim>1</dim>
					<dim>96</dim>
					<dim>17</dim>
					<dim>17</dim>
				</port>
				<port id="1" precision="FP32">
					<dim>256</dim>
					<dim>96</dim>
					<dim>1</dim>
					<dim>1</dim>
				</port>
			</input>
			<output>
				<port id="2" precision="FP32">
					<dim>1</dim>
					<dim>256</dim>
					<dim>17</dim>
					<dim>17</dim>
				</port>
			</output>
		</layer>
		<layer id="178" name="data_add_2265222657" type="Const" version="opset1">
			<data element_type="f32" shape="1, 256, 1, 1" offset="3694560" size="1024" />
			<output>
				<port id="0" precision="FP32">
					<dim>1</dim>
					<dim>256</dim>
					<dim>1</dim>
					<dim>1</dim>
				</port>
			</output>
		</layer>
		<layer id="179" name="Block35_4_Conv2d_1x1/BiasAdd/Add/Fused_Add_" type="Add" version="opset1">
			<data auto_broadcast="numpy" />
			<input>
				<port id="0" precision="FP32">
					<dim>1</dim>
					<dim>256</dim>
					<dim>17</dim>
					<dim>17</dim>
				</port>
				<port id="1" precision="FP32">
					<dim>1</dim>
					<dim>256</dim>
					<dim>1</dim>
					<dim>1</dim>
				</port>
			</input>
			<output>
				<port id="2" precision="FP32" names="Block35_4_ScaleSum/mul:0">
					<dim>1</dim>
					<dim>256</dim>
					<dim>17</dim>
					<dim>17</dim>
				</port>
			</output>
		</layer>
		<layer id="180" name="Block35_4_ScaleSum/add" type="Add" version="opset1">
			<data auto_broadcast="numpy" />
			<input>
				<port id="0" precision="FP32">
					<dim>1</dim>
					<dim>256</dim>
					<dim>17</dim>
					<dim>17</dim>
				</port>
				<port id="1" precision="FP32">
					<dim>1</dim>
					<dim>256</dim>
					<dim>17</dim>
					<dim>17</dim>
				</port>
			</input>
			<output>
				<port id="2" precision="FP32" names="Block35_4_ScaleSum/add:0">
					<dim>1</dim>
					<dim>256</dim>
					<dim>17</dim>
					<dim>17</dim>
				</port>
			</output>
		</layer>
		<layer id="181" name="Block35_4_Activation/Relu" type="ReLU" version="opset1">
			<input>
				<port id="0" precision="FP32">
					<dim>1</dim>
					<dim>256</dim>
					<dim>17</dim>
					<dim>17</dim>
				</port>
			</input>
			<output>
				<port id="1" precision="FP32" names="Block35_4_Activation/Relu:0">
					<dim>1</dim>
					<dim>256</dim>
					<dim>17</dim>
					<dim>17</dim>
				</port>
			</output>
		</layer>
		<layer id="182" name="Block35_5_Branch_0_Conv2d_1x1_BatchNorm/FusedBatchNormV3/mean/Fused_Mul__copy" type="Const" version="opset1">
			<data element_type="f32" shape="32, 256, 1, 1" offset="3695584" size="32768" />
			<output>
				<port id="0" precision="FP32" names="Block35_5_Branch_0_Conv2d_1x1/Conv2D/ReadVariableOp:0">
					<dim>32</dim>
					<dim>256</dim>
					<dim>1</dim>
					<dim>1</dim>
				</port>
			</output>
		</layer>
		<layer id="183" name="Block35_5_Branch_0_Conv2d_1x1/Conv2D" type="Convolution" version="opset1">
			<data strides="1, 1" dilations="1, 1" pads_begin="0, 0" pads_end="0, 0" auto_pad="same_upper" />
			<input>
				<port id="0" precision="FP32">
					<dim>1</dim>
					<dim>256</dim>
					<dim>17</dim>
					<dim>17</dim>
				</port>
				<port id="1" precision="FP32">
					<dim>32</dim>
					<dim>256</dim>
					<dim>1</dim>
					<dim>1</dim>
				</port>
			</input>
			<output>
				<port id="2" precision="FP32">
					<dim>1</dim>
					<dim>32</dim>
					<dim>17</dim>
					<dim>17</dim>
				</port>
			</output>
		</layer>
		<layer id="184" name="data_add_2266022665" type="Const" version="opset1">
			<data element_type="f32" shape="1, 32, 1, 1" offset="3728352" size="128" />
			<output>
				<port id="0" precision="FP32">
					<dim>1</dim>
					<dim>32</dim>
					<dim>1</dim>
					<dim>1</dim>
				</port>
			</output>
		</layer>
		<layer id="185" name="Block35_5_Branch_0_Conv2d_1x1_BatchNorm/FusedBatchNormV3/variance/Fused_Add_" type="Add" version="opset1">
			<data auto_broadcast="numpy" />
			<input>
				<port id="0" precision="FP32">
					<dim>1</dim>
					<dim>32</dim>
					<dim>17</dim>
					<dim>17</dim>
				</port>
				<port id="1" precision="FP32">
					<dim>1</dim>
					<dim>32</dim>
					<dim>1</dim>
					<dim>1</dim>
				</port>
			</input>
			<output>
				<port id="2" precision="FP32" names="Block35_5_Branch_0_Conv2d_1x1_BatchNorm/FusedBatchNormV3:0">
					<dim>1</dim>
					<dim>32</dim>
					<dim>17</dim>
					<dim>17</dim>
				</port>
			</output>
		</layer>
		<layer id="186" name="Block35_5_Branch_0_Conv2d_1x1_Activation/Relu" type="ReLU" version="opset1">
			<input>
				<port id="0" precision="FP32">
					<dim>1</dim>
					<dim>32</dim>
					<dim>17</dim>
					<dim>17</dim>
				</port>
			</input>
			<output>
				<port id="1" precision="FP32" names="Block35_5_Branch_0_Conv2d_1x1_Activation/Relu:0">
					<dim>1</dim>
					<dim>32</dim>
					<dim>17</dim>
					<dim>17</dim>
				</port>
			</output>
		</layer>
		<layer id="187" name="Block35_5_Branch_1_Conv2d_0a_1x1_BatchNorm/FusedBatchNormV3/mean/Fused_Mul__copy" type="Const" version="opset1">
			<data element_type="f32" shape="32, 256, 1, 1" offset="3728480" size="32768" />
			<output>
				<port id="0" precision="FP32" names="Block35_5_Branch_1_Conv2d_0a_1x1/Conv2D/ReadVariableOp:0">
					<dim>32</dim>
					<dim>256</dim>
					<dim>1</dim>
					<dim>1</dim>
				</port>
			</output>
		</layer>
		<layer id="188" name="Block35_5_Branch_1_Conv2d_0a_1x1/Conv2D" type="Convolution" version="opset1">
			<data strides="1, 1" dilations="1, 1" pads_begin="0, 0" pads_end="0, 0" auto_pad="same_upper" />
			<input>
				<port id="0" precision="FP32">
					<dim>1</dim>
					<dim>256</dim>
					<dim>17</dim>
					<dim>17</dim>
				</port>
				<port id="1" precision="FP32">
					<dim>32</dim>
					<dim>256</dim>
					<dim>1</dim>
					<dim>1</dim>
				</port>
			</input>
			<output>
				<port id="2" precision="FP32">
					<dim>1</dim>
					<dim>32</dim>
					<dim>17</dim>
					<dim>17</dim>
				</port>
			</output>
		</layer>
		<layer id="189" name="data_add_2266822673" type="Const" version="opset1">
			<data element_type="f32" shape="1, 32, 1, 1" offset="3761248" size="128" />
			<output>
				<port id="0" precision="FP32">
					<dim>1</dim>
					<dim>32</dim>
					<dim>1</dim>
					<dim>1</dim>
				</port>
			</output>
		</layer>
		<layer id="190" name="Block35_5_Branch_1_Conv2d_0a_1x1_BatchNorm/FusedBatchNormV3/variance/Fused_Add_" type="Add" version="opset1">
			<data auto_broadcast="numpy" />
			<input>
				<port id="0" precision="FP32">
					<dim>1</dim>
					<dim>32</dim>
					<dim>17</dim>
					<dim>17</dim>
				</port>
				<port id="1" precision="FP32">
					<dim>1</dim>
					<dim>32</dim>
					<dim>1</dim>
					<dim>1</dim>
				</port>
			</input>
			<output>
				<port id="2" precision="FP32" names="Block35_5_Branch_1_Conv2d_0a_1x1_BatchNorm/FusedBatchNormV3:0">
					<dim>1</dim>
					<dim>32</dim>
					<dim>17</dim>
					<dim>17</dim>
				</port>
			</output>
		</layer>
		<layer id="191" name="Block35_5_Branch_1_Conv2d_0a_1x1_Activation/Relu" type="ReLU" version="opset1">
			<input>
				<port id="0" precision="FP32">
					<dim>1</dim>
					<dim>32</dim>
					<dim>17</dim>
					<dim>17</dim>
				</port>
			</input>
			<output>
				<port id="1" precision="FP32" names="Block35_5_Branch_1_Conv2d_0a_1x1_Activation/Relu:0">
					<dim>1</dim>
					<dim>32</dim>
					<dim>17</dim>
					<dim>17</dim>
				</port>
			</output>
		</layer>
		<layer id="192" name="Block35_5_Branch_1_Conv2d_0b_3x3_BatchNorm/FusedBatchNormV3/mean/Fused_Mul__copy" type="Const" version="opset1">
			<data element_type="f32" shape="32, 32, 3, 3" offset="3761376" size="36864" />
			<output>
				<port id="0" precision="FP32" names="Block35_5_Branch_1_Conv2d_0b_3x3/Conv2D/ReadVariableOp:0">
					<dim>32</dim>
					<dim>32</dim>
					<dim>3</dim>
					<dim>3</dim>
				</port>
			</output>
		</layer>
		<layer id="193" name="Block35_5_Branch_1_Conv2d_0b_3x3/Conv2D" type="Convolution" version="opset1">
			<data strides="1, 1" dilations="1, 1" pads_begin="0, 0" pads_end="0, 0" auto_pad="same_upper" />
			<input>
				<port id="0" precision="FP32">
					<dim>1</dim>
					<dim>32</dim>
					<dim>17</dim>
					<dim>17</dim>
				</port>
				<port id="1" precision="FP32">
					<dim>32</dim>
					<dim>32</dim>
					<dim>3</dim>
					<dim>3</dim>
				</port>
			</input>
			<output>
				<port id="2" precision="FP32">
					<dim>1</dim>
					<dim>32</dim>
					<dim>17</dim>
					<dim>17</dim>
				</port>
			</output>
		</layer>
		<layer id="194" name="data_add_2267622681" type="Const" version="opset1">
			<data element_type="f32" shape="1, 32, 1, 1" offset="3798240" size="128" />
			<output>
				<port id="0" precision="FP32">
					<dim>1</dim>
					<dim>32</dim>
					<dim>1</dim>
					<dim>1</dim>
				</port>
			</output>
		</layer>
		<layer id="195" name="Block35_5_Branch_1_Conv2d_0b_3x3_BatchNorm/FusedBatchNormV3/variance/Fused_Add_" type="Add" version="opset1">
			<data auto_broadcast="numpy" />
			<input>
				<port id="0" precision="FP32">
					<dim>1</dim>
					<dim>32</dim>
					<dim>17</dim>
					<dim>17</dim>
				</port>
				<port id="1" precision="FP32">
					<dim>1</dim>
					<dim>32</dim>
					<dim>1</dim>
					<dim>1</dim>
				</port>
			</input>
			<output>
				<port id="2" precision="FP32" names="Block35_5_Branch_1_Conv2d_0b_3x3_BatchNorm/FusedBatchNormV3:0">
					<dim>1</dim>
					<dim>32</dim>
					<dim>17</dim>
					<dim>17</dim>
				</port>
			</output>
		</layer>
		<layer id="196" name="Block35_5_Branch_1_Conv2d_0b_3x3_Activation/Relu" type="ReLU" version="opset1">
			<input>
				<port id="0" precision="FP32">
					<dim>1</dim>
					<dim>32</dim>
					<dim>17</dim>
					<dim>17</dim>
				</port>
			</input>
			<output>
				<port id="1" precision="FP32" names="Block35_5_Branch_1_Conv2d_0b_3x3_Activation/Relu:0">
					<dim>1</dim>
					<dim>32</dim>
					<dim>17</dim>
					<dim>17</dim>
				</port>
			</output>
		</layer>
		<layer id="197" name="Block35_5_Branch_2_Conv2d_0a_1x1_BatchNorm/FusedBatchNormV3/mean/Fused_Mul__copy" type="Const" version="opset1">
			<data element_type="f32" shape="32, 256, 1, 1" offset="3798368" size="32768" />
			<output>
				<port id="0" precision="FP32" names="Block35_5_Branch_2_Conv2d_0a_1x1/Conv2D/ReadVariableOp:0">
					<dim>32</dim>
					<dim>256</dim>
					<dim>1</dim>
					<dim>1</dim>
				</port>
			</output>
		</layer>
		<layer id="198" name="Block35_5_Branch_2_Conv2d_0a_1x1/Conv2D" type="Convolution" version="opset1">
			<data strides="1, 1" dilations="1, 1" pads_begin="0, 0" pads_end="0, 0" auto_pad="same_upper" />
			<input>
				<port id="0" precision="FP32">
					<dim>1</dim>
					<dim>256</dim>
					<dim>17</dim>
					<dim>17</dim>
				</port>
				<port id="1" precision="FP32">
					<dim>32</dim>
					<dim>256</dim>
					<dim>1</dim>
					<dim>1</dim>
				</port>
			</input>
			<output>
				<port id="2" precision="FP32">
					<dim>1</dim>
					<dim>32</dim>
					<dim>17</dim>
					<dim>17</dim>
				</port>
			</output>
		</layer>
		<layer id="199" name="data_add_2268422689" type="Const" version="opset1">
			<data element_type="f32" shape="1, 32, 1, 1" offset="3831136" size="128" />
			<output>
				<port id="0" precision="FP32">
					<dim>1</dim>
					<dim>32</dim>
					<dim>1</dim>
					<dim>1</dim>
				</port>
			</output>
		</layer>
		<layer id="200" name="Block35_5_Branch_2_Conv2d_0a_1x1_BatchNorm/FusedBatchNormV3/variance/Fused_Add_" type="Add" version="opset1">
			<data auto_broadcast="numpy" />
			<input>
				<port id="0" precision="FP32">
					<dim>1</dim>
					<dim>32</dim>
					<dim>17</dim>
					<dim>17</dim>
				</port>
				<port id="1" precision="FP32">
					<dim>1</dim>
					<dim>32</dim>
					<dim>1</dim>
					<dim>1</dim>
				</port>
			</input>
			<output>
				<port id="2" precision="FP32" names="Block35_5_Branch_2_Conv2d_0a_1x1_BatchNorm/FusedBatchNormV3:0">
					<dim>1</dim>
					<dim>32</dim>
					<dim>17</dim>
					<dim>17</dim>
				</port>
			</output>
		</layer>
		<layer id="201" name="Block35_5_Branch_2_Conv2d_0a_1x1_Activation/Relu" type="ReLU" version="opset1">
			<input>
				<port id="0" precision="FP32">
					<dim>1</dim>
					<dim>32</dim>
					<dim>17</dim>
					<dim>17</dim>
				</port>
			</input>
			<output>
				<port id="1" precision="FP32" names="Block35_5_Branch_2_Conv2d_0a_1x1_Activation/Relu:0">
					<dim>1</dim>
					<dim>32</dim>
					<dim>17</dim>
					<dim>17</dim>
				</port>
			</output>
		</layer>
		<layer id="202" name="Block35_5_Branch_2_Conv2d_0b_3x3_BatchNorm/FusedBatchNormV3/mean/Fused_Mul__copy" type="Const" version="opset1">
			<data element_type="f32" shape="32, 32, 3, 3" offset="3831264" size="36864" />
			<output>
				<port id="0" precision="FP32" names="Block35_5_Branch_2_Conv2d_0b_3x3/Conv2D/ReadVariableOp:0">
					<dim>32</dim>
					<dim>32</dim>
					<dim>3</dim>
					<dim>3</dim>
				</port>
			</output>
		</layer>
		<layer id="203" name="Block35_5_Branch_2_Conv2d_0b_3x3/Conv2D" type="Convolution" version="opset1">
			<data strides="1, 1" dilations="1, 1" pads_begin="0, 0" pads_end="0, 0" auto_pad="same_upper" />
			<input>
				<port id="0" precision="FP32">
					<dim>1</dim>
					<dim>32</dim>
					<dim>17</dim>
					<dim>17</dim>
				</port>
				<port id="1" precision="FP32">
					<dim>32</dim>
					<dim>32</dim>
					<dim>3</dim>
					<dim>3</dim>
				</port>
			</input>
			<output>
				<port id="2" precision="FP32">
					<dim>1</dim>
					<dim>32</dim>
					<dim>17</dim>
					<dim>17</dim>
				</port>
			</output>
		</layer>
		<layer id="204" name="data_add_2269222697" type="Const" version="opset1">
			<data element_type="f32" shape="1, 32, 1, 1" offset="3868128" size="128" />
			<output>
				<port id="0" precision="FP32">
					<dim>1</dim>
					<dim>32</dim>
					<dim>1</dim>
					<dim>1</dim>
				</port>
			</output>
		</layer>
		<layer id="205" name="Block35_5_Branch_2_Conv2d_0b_3x3_BatchNorm/FusedBatchNormV3/variance/Fused_Add_" type="Add" version="opset1">
			<data auto_broadcast="numpy" />
			<input>
				<port id="0" precision="FP32">
					<dim>1</dim>
					<dim>32</dim>
					<dim>17</dim>
					<dim>17</dim>
				</port>
				<port id="1" precision="FP32">
					<dim>1</dim>
					<dim>32</dim>
					<dim>1</dim>
					<dim>1</dim>
				</port>
			</input>
			<output>
				<port id="2" precision="FP32" names="Block35_5_Branch_2_Conv2d_0b_3x3_BatchNorm/FusedBatchNormV3:0">
					<dim>1</dim>
					<dim>32</dim>
					<dim>17</dim>
					<dim>17</dim>
				</port>
			</output>
		</layer>
		<layer id="206" name="Block35_5_Branch_2_Conv2d_0b_3x3_Activation/Relu" type="ReLU" version="opset1">
			<input>
				<port id="0" precision="FP32">
					<dim>1</dim>
					<dim>32</dim>
					<dim>17</dim>
					<dim>17</dim>
				</port>
			</input>
			<output>
				<port id="1" precision="FP32" names="Block35_5_Branch_2_Conv2d_0b_3x3_Activation/Relu:0">
					<dim>1</dim>
					<dim>32</dim>
					<dim>17</dim>
					<dim>17</dim>
				</port>
			</output>
		</layer>
		<layer id="207" name="Block35_5_Branch_2_Conv2d_0c_3x3_BatchNorm/FusedBatchNormV3/mean/Fused_Mul__copy" type="Const" version="opset1">
			<data element_type="f32" shape="32, 32, 3, 3" offset="3868256" size="36864" />
			<output>
				<port id="0" precision="FP32" names="Block35_5_Branch_2_Conv2d_0c_3x3/Conv2D/ReadVariableOp:0">
					<dim>32</dim>
					<dim>32</dim>
					<dim>3</dim>
					<dim>3</dim>
				</port>
			</output>
		</layer>
		<layer id="208" name="Block35_5_Branch_2_Conv2d_0c_3x3/Conv2D" type="Convolution" version="opset1">
			<data strides="1, 1" dilations="1, 1" pads_begin="0, 0" pads_end="0, 0" auto_pad="same_upper" />
			<input>
				<port id="0" precision="FP32">
					<dim>1</dim>
					<dim>32</dim>
					<dim>17</dim>
					<dim>17</dim>
				</port>
				<port id="1" precision="FP32">
					<dim>32</dim>
					<dim>32</dim>
					<dim>3</dim>
					<dim>3</dim>
				</port>
			</input>
			<output>
				<port id="2" precision="FP32">
					<dim>1</dim>
					<dim>32</dim>
					<dim>17</dim>
					<dim>17</dim>
				</port>
			</output>
		</layer>
		<layer id="209" name="data_add_2270022705" type="Const" version="opset1">
			<data element_type="f32" shape="1, 32, 1, 1" offset="3905120" size="128" />
			<output>
				<port id="0" precision="FP32">
					<dim>1</dim>
					<dim>32</dim>
					<dim>1</dim>
					<dim>1</dim>
				</port>
			</output>
		</layer>
		<layer id="210" name="Block35_5_Branch_2_Conv2d_0c_3x3_BatchNorm/FusedBatchNormV3/variance/Fused_Add_" type="Add" version="opset1">
			<data auto_broadcast="numpy" />
			<input>
				<port id="0" precision="FP32">
					<dim>1</dim>
					<dim>32</dim>
					<dim>17</dim>
					<dim>17</dim>
				</port>
				<port id="1" precision="FP32">
					<dim>1</dim>
					<dim>32</dim>
					<dim>1</dim>
					<dim>1</dim>
				</port>
			</input>
			<output>
				<port id="2" precision="FP32" names="Block35_5_Branch_2_Conv2d_0c_3x3_BatchNorm/FusedBatchNormV3:0">
					<dim>1</dim>
					<dim>32</dim>
					<dim>17</dim>
					<dim>17</dim>
				</port>
			</output>
		</layer>
		<layer id="211" name="Block35_5_Branch_2_Conv2d_0c_3x3_Activation/Relu" type="ReLU" version="opset1">
			<input>
				<port id="0" precision="FP32">
					<dim>1</dim>
					<dim>32</dim>
					<dim>17</dim>
					<dim>17</dim>
				</port>
			</input>
			<output>
				<port id="1" precision="FP32" names="Block35_5_Branch_2_Conv2d_0c_3x3_Activation/Relu:0">
					<dim>1</dim>
					<dim>32</dim>
					<dim>17</dim>
					<dim>17</dim>
				</port>
			</output>
		</layer>
		<layer id="212" name="Block35_5_Concatenate/concat" type="Concat" version="opset1">
			<data axis="1" />
			<input>
				<port id="0" precision="FP32">
					<dim>1</dim>
					<dim>32</dim>
					<dim>17</dim>
					<dim>17</dim>
				</port>
				<port id="1" precision="FP32">
					<dim>1</dim>
					<dim>32</dim>
					<dim>17</dim>
					<dim>17</dim>
				</port>
				<port id="2" precision="FP32">
					<dim>1</dim>
					<dim>32</dim>
					<dim>17</dim>
					<dim>17</dim>
				</port>
			</input>
			<output>
				<port id="3" precision="FP32" names="Block35_5_Concatenate/concat:0">
					<dim>1</dim>
					<dim>96</dim>
					<dim>17</dim>
					<dim>17</dim>
				</port>
			</output>
		</layer>
		<layer id="213" name="Block35_5_ScaleSum/mul/Fused_Mul__copy" type="Const" version="opset1">
			<data element_type="f32" shape="256, 96, 1, 1" offset="3905248" size="98304" />
			<output>
				<port id="0" precision="FP32" names="Block35_5_Conv2d_1x1/Conv2D/ReadVariableOp:0">
					<dim>256</dim>
					<dim>96</dim>
					<dim>1</dim>
					<dim>1</dim>
				</port>
			</output>
		</layer>
		<layer id="214" name="Block35_5_Conv2d_1x1/Conv2D" type="Convolution" version="opset1">
			<data strides="1, 1" dilations="1, 1" pads_begin="0, 0" pads_end="0, 0" auto_pad="same_upper" />
			<input>
				<port id="0" precision="FP32">
					<dim>1</dim>
					<dim>96</dim>
					<dim>17</dim>
					<dim>17</dim>
				</port>
				<port id="1" precision="FP32">
					<dim>256</dim>
					<dim>96</dim>
					<dim>1</dim>
					<dim>1</dim>
				</port>
			</input>
			<output>
				<port id="2" precision="FP32">
					<dim>1</dim>
					<dim>256</dim>
					<dim>17</dim>
					<dim>17</dim>
				</port>
			</output>
		</layer>
		<layer id="215" name="data_add_2270822713" type="Const" version="opset1">
			<data element_type="f32" shape="1, 256, 1, 1" offset="4003552" size="1024" />
			<output>
				<port id="0" precision="FP32">
					<dim>1</dim>
					<dim>256</dim>
					<dim>1</dim>
					<dim>1</dim>
				</port>
			</output>
		</layer>
		<layer id="216" name="Block35_5_Conv2d_1x1/BiasAdd/Add/Fused_Add_" type="Add" version="opset1">
			<data auto_broadcast="numpy" />
			<input>
				<port id="0" precision="FP32">
					<dim>1</dim>
					<dim>256</dim>
					<dim>17</dim>
					<dim>17</dim>
				</port>
				<port id="1" precision="FP32">
					<dim>1</dim>
					<dim>256</dim>
					<dim>1</dim>
					<dim>1</dim>
				</port>
			</input>
			<output>
				<port id="2" precision="FP32" names="Block35_5_ScaleSum/mul:0">
					<dim>1</dim>
					<dim>256</dim>
					<dim>17</dim>
					<dim>17</dim>
				</port>
			</output>
		</layer>
		<layer id="217" name="Block35_5_ScaleSum/add" type="Add" version="opset1">
			<data auto_broadcast="numpy" />
			<input>
				<port id="0" precision="FP32">
					<dim>1</dim>
					<dim>256</dim>
					<dim>17</dim>
					<dim>17</dim>
				</port>
				<port id="1" precision="FP32">
					<dim>1</dim>
					<dim>256</dim>
					<dim>17</dim>
					<dim>17</dim>
				</port>
			</input>
			<output>
				<port id="2" precision="FP32" names="Block35_5_ScaleSum/add:0">
					<dim>1</dim>
					<dim>256</dim>
					<dim>17</dim>
					<dim>17</dim>
				</port>
			</output>
		</layer>
		<layer id="218" name="Block35_5_Activation/Relu" type="ReLU" version="opset1">
			<input>
				<port id="0" precision="FP32">
					<dim>1</dim>
					<dim>256</dim>
					<dim>17</dim>
					<dim>17</dim>
				</port>
			</input>
			<output>
				<port id="1" precision="FP32" names="Block35_5_Activation/Relu:0">
					<dim>1</dim>
					<dim>256</dim>
					<dim>17</dim>
					<dim>17</dim>
				</port>
			</output>
		</layer>
		<layer id="219" name="Mixed_6a_Branch_0_Conv2d_1a_3x3_BatchNorm/FusedBatchNormV3/mean/Fused_Mul__copy" type="Const" version="opset1">
			<data element_type="f32" shape="384, 256, 3, 3" offset="4004576" size="3538944" />
			<output>
				<port id="0" precision="FP32" names="Mixed_6a_Branch_0_Conv2d_1a_3x3/Conv2D/ReadVariableOp:0">
					<dim>384</dim>
					<dim>256</dim>
					<dim>3</dim>
					<dim>3</dim>
				</port>
			</output>
		</layer>
		<layer id="220" name="Mixed_6a_Branch_0_Conv2d_1a_3x3/Conv2D" type="Convolution" version="opset1">
			<data strides="2, 2" dilations="1, 1" pads_begin="0, 0" pads_end="0, 0" auto_pad="valid" />
			<input>
				<port id="0" precision="FP32">
					<dim>1</dim>
					<dim>256</dim>
					<dim>17</dim>
					<dim>17</dim>
				</port>
				<port id="1" precision="FP32">
					<dim>384</dim>
					<dim>256</dim>
					<dim>3</dim>
					<dim>3</dim>
				</port>
			</input>
			<output>
				<port id="2" precision="FP32">
					<dim>1</dim>
					<dim>384</dim>
					<dim>8</dim>
					<dim>8</dim>
				</port>
			</output>
		</layer>
		<layer id="221" name="data_add_2271622721" type="Const" version="opset1">
			<data element_type="f32" shape="1, 384, 1, 1" offset="7543520" size="1536" />
			<output>
				<port id="0" precision="FP32">
					<dim>1</dim>
					<dim>384</dim>
					<dim>1</dim>
					<dim>1</dim>
				</port>
			</output>
		</layer>
		<layer id="222" name="Mixed_6a_Branch_0_Conv2d_1a_3x3_BatchNorm/FusedBatchNormV3/variance/Fused_Add_" type="Add" version="opset1">
			<data auto_broadcast="numpy" />
			<input>
				<port id="0" precision="FP32">
					<dim>1</dim>
					<dim>384</dim>
					<dim>8</dim>
					<dim>8</dim>
				</port>
				<port id="1" precision="FP32">
					<dim>1</dim>
					<dim>384</dim>
					<dim>1</dim>
					<dim>1</dim>
				</port>
			</input>
			<output>
				<port id="2" precision="FP32" names="Mixed_6a_Branch_0_Conv2d_1a_3x3_BatchNorm/FusedBatchNormV3:0">
					<dim>1</dim>
					<dim>384</dim>
					<dim>8</dim>
					<dim>8</dim>
				</port>
			</output>
		</layer>
		<layer id="223" name="Mixed_6a_Branch_0_Conv2d_1a_3x3_Activation/Relu" type="ReLU" version="opset1">
			<input>
				<port id="0" precision="FP32">
					<dim>1</dim>
					<dim>384</dim>
					<dim>8</dim>
					<dim>8</dim>
				</port>
			</input>
			<output>
				<port id="1" precision="FP32" names="Mixed_6a_Branch_0_Conv2d_1a_3x3_Activation/Relu:0">
					<dim>1</dim>
					<dim>384</dim>
					<dim>8</dim>
					<dim>8</dim>
				</port>
			</output>
		</layer>
		<layer id="224" name="Mixed_6a_Branch_1_Conv2d_0a_1x1_BatchNorm/FusedBatchNormV3/mean/Fused_Mul__copy" type="Const" version="opset1">
			<data element_type="f32" shape="192, 256, 1, 1" offset="7545056" size="196608" />
			<output>
				<port id="0" precision="FP32" names="Mixed_6a_Branch_1_Conv2d_0a_1x1/Conv2D/ReadVariableOp:0">
					<dim>192</dim>
					<dim>256</dim>
					<dim>1</dim>
					<dim>1</dim>
				</port>
			</output>
		</layer>
		<layer id="225" name="Mixed_6a_Branch_1_Conv2d_0a_1x1/Conv2D" type="Convolution" version="opset1">
			<data strides="1, 1" dilations="1, 1" pads_begin="0, 0" pads_end="0, 0" auto_pad="same_upper" />
			<input>
				<port id="0" precision="FP32">
					<dim>1</dim>
					<dim>256</dim>
					<dim>17</dim>
					<dim>17</dim>
				</port>
				<port id="1" precision="FP32">
					<dim>192</dim>
					<dim>256</dim>
					<dim>1</dim>
					<dim>1</dim>
				</port>
			</input>
			<output>
				<port id="2" precision="FP32">
					<dim>1</dim>
					<dim>192</dim>
					<dim>17</dim>
					<dim>17</dim>
				</port>
			</output>
		</layer>
		<layer id="226" name="data_add_2272422729" type="Const" version="opset1">
			<data element_type="f32" shape="1, 192, 1, 1" offset="7741664" size="768" />
			<output>
				<port id="0" precision="FP32">
					<dim>1</dim>
					<dim>192</dim>
					<dim>1</dim>
					<dim>1</dim>
				</port>
			</output>
		</layer>
		<layer id="227" name="Mixed_6a_Branch_1_Conv2d_0a_1x1_BatchNorm/FusedBatchNormV3/variance/Fused_Add_" type="Add" version="opset1">
			<data auto_broadcast="numpy" />
			<input>
				<port id="0" precision="FP32">
					<dim>1</dim>
					<dim>192</dim>
					<dim>17</dim>
					<dim>17</dim>
				</port>
				<port id="1" precision="FP32">
					<dim>1</dim>
					<dim>192</dim>
					<dim>1</dim>
					<dim>1</dim>
				</port>
			</input>
			<output>
				<port id="2" precision="FP32" names="Mixed_6a_Branch_1_Conv2d_0a_1x1_BatchNorm/FusedBatchNormV3:0">
					<dim>1</dim>
					<dim>192</dim>
					<dim>17</dim>
					<dim>17</dim>
				</port>
			</output>
		</layer>
		<layer id="228" name="Mixed_6a_Branch_1_Conv2d_0a_1x1_Activation/Relu" type="ReLU" version="opset1">
			<input>
				<port id="0" precision="FP32">
					<dim>1</dim>
					<dim>192</dim>
					<dim>17</dim>
					<dim>17</dim>
				</port>
			</input>
			<output>
				<port id="1" precision="FP32" names="Mixed_6a_Branch_1_Conv2d_0a_1x1_Activation/Relu:0">
					<dim>1</dim>
					<dim>192</dim>
					<dim>17</dim>
					<dim>17</dim>
				</port>
			</output>
		</layer>
		<layer id="229" name="Mixed_6a_Branch_1_Conv2d_0b_3x3_BatchNorm/FusedBatchNormV3/mean/Fused_Mul__copy" type="Const" version="opset1">
			<data element_type="f32" shape="192, 192, 3, 3" offset="7742432" size="1327104" />
			<output>
				<port id="0" precision="FP32" names="Mixed_6a_Branch_1_Conv2d_0b_3x3/Conv2D/ReadVariableOp:0">
					<dim>192</dim>
					<dim>192</dim>
					<dim>3</dim>
					<dim>3</dim>
				</port>
			</output>
		</layer>
		<layer id="230" name="Mixed_6a_Branch_1_Conv2d_0b_3x3/Conv2D" type="Convolution" version="opset1">
			<data strides="1, 1" dilations="1, 1" pads_begin="0, 0" pads_end="0, 0" auto_pad="same_upper" />
			<input>
				<port id="0" precision="FP32">
					<dim>1</dim>
					<dim>192</dim>
					<dim>17</dim>
					<dim>17</dim>
				</port>
				<port id="1" precision="FP32">
					<dim>192</dim>
					<dim>192</dim>
					<dim>3</dim>
					<dim>3</dim>
				</port>
			</input>
			<output>
				<port id="2" precision="FP32">
					<dim>1</dim>
					<dim>192</dim>
					<dim>17</dim>
					<dim>17</dim>
				</port>
			</output>
		</layer>
		<layer id="231" name="data_add_2273222737" type="Const" version="opset1">
			<data element_type="f32" shape="1, 192, 1, 1" offset="9069536" size="768" />
			<output>
				<port id="0" precision="FP32">
					<dim>1</dim>
					<dim>192</dim>
					<dim>1</dim>
					<dim>1</dim>
				</port>
			</output>
		</layer>
		<layer id="232" name="Mixed_6a_Branch_1_Conv2d_0b_3x3_BatchNorm/FusedBatchNormV3/variance/Fused_Add_" type="Add" version="opset1">
			<data auto_broadcast="numpy" />
			<input>
				<port id="0" precision="FP32">
					<dim>1</dim>
					<dim>192</dim>
					<dim>17</dim>
					<dim>17</dim>
				</port>
				<port id="1" precision="FP32">
					<dim>1</dim>
					<dim>192</dim>
					<dim>1</dim>
					<dim>1</dim>
				</port>
			</input>
			<output>
				<port id="2" precision="FP32" names="Mixed_6a_Branch_1_Conv2d_0b_3x3_BatchNorm/FusedBatchNormV3:0">
					<dim>1</dim>
					<dim>192</dim>
					<dim>17</dim>
					<dim>17</dim>
				</port>
			</output>
		</layer>
		<layer id="233" name="Mixed_6a_Branch_1_Conv2d_0b_3x3_Activation/Relu" type="ReLU" version="opset1">
			<input>
				<port id="0" precision="FP32">
					<dim>1</dim>
					<dim>192</dim>
					<dim>17</dim>
					<dim>17</dim>
				</port>
			</input>
			<output>
				<port id="1" precision="FP32" names="Mixed_6a_Branch_1_Conv2d_0b_3x3_Activation/Relu:0">
					<dim>1</dim>
					<dim>192</dim>
					<dim>17</dim>
					<dim>17</dim>
				</port>
			</output>
		</layer>
		<layer id="234" name="Mixed_6a_Branch_1_Conv2d_1a_3x3_BatchNorm/FusedBatchNormV3/mean/Fused_Mul__copy" type="Const" version="opset1">
			<data element_type="f32" shape="256, 192, 3, 3" offset="9070304" size="1769472" />
			<output>
				<port id="0" precision="FP32" names="Mixed_6a_Branch_1_Conv2d_1a_3x3/Conv2D/ReadVariableOp:0">
					<dim>256</dim>
					<dim>192</dim>
					<dim>3</dim>
					<dim>3</dim>
				</port>
			</output>
		</layer>
		<layer id="235" name="Mixed_6a_Branch_1_Conv2d_1a_3x3/Conv2D" type="Convolution" version="opset1">
			<data strides="2, 2" dilations="1, 1" pads_begin="0, 0" pads_end="0, 0" auto_pad="valid" />
			<input>
				<port id="0" precision="FP32">
					<dim>1</dim>
					<dim>192</dim>
					<dim>17</dim>
					<dim>17</dim>
				</port>
				<port id="1" precision="FP32">
					<dim>256</dim>
					<dim>192</dim>
					<dim>3</dim>
					<dim>3</dim>
				</port>
			</input>
			<output>
				<port id="2" precision="FP32">
					<dim>1</dim>
					<dim>256</dim>
					<dim>8</dim>
					<dim>8</dim>
				</port>
			</output>
		</layer>
		<layer id="236" name="data_add_2274022745" type="Const" version="opset1">
			<data element_type="f32" shape="1, 256, 1, 1" offset="10839776" size="1024" />
			<output>
				<port id="0" precision="FP32">
					<dim>1</dim>
					<dim>256</dim>
					<dim>1</dim>
					<dim>1</dim>
				</port>
			</output>
		</layer>
		<layer id="237" name="Mixed_6a_Branch_1_Conv2d_1a_3x3_BatchNorm/FusedBatchNormV3/variance/Fused_Add_" type="Add" version="opset1">
			<data auto_broadcast="numpy" />
			<input>
				<port id="0" precision="FP32">
					<dim>1</dim>
					<dim>256</dim>
					<dim>8</dim>
					<dim>8</dim>
				</port>
				<port id="1" precision="FP32">
					<dim>1</dim>
					<dim>256</dim>
					<dim>1</dim>
					<dim>1</dim>
				</port>
			</input>
			<output>
				<port id="2" precision="FP32" names="Mixed_6a_Branch_1_Conv2d_1a_3x3_BatchNorm/FusedBatchNormV3:0">
					<dim>1</dim>
					<dim>256</dim>
					<dim>8</dim>
					<dim>8</dim>
				</port>
			</output>
		</layer>
		<layer id="238" name="Mixed_6a_Branch_1_Conv2d_1a_3x3_Activation/Relu" type="ReLU" version="opset1">
			<input>
				<port id="0" precision="FP32">
					<dim>1</dim>
					<dim>256</dim>
					<dim>8</dim>
					<dim>8</dim>
				</port>
			</input>
			<output>
				<port id="1" precision="FP32" names="Mixed_6a_Branch_1_Conv2d_1a_3x3_Activation/Relu:0">
					<dim>1</dim>
					<dim>256</dim>
					<dim>8</dim>
					<dim>8</dim>
				</port>
			</output>
		</layer>
		<layer id="239" name="Mixed_6a_Branch_2_MaxPool_1a_3x3/MaxPool" type="MaxPool" version="opset8">
			<data strides="2, 2" dilations="1, 1" pads_begin="0, 0" pads_end="0, 0" kernel="3, 3" rounding_type="floor" auto_pad="valid" index_element_type="i64" axis="0" />
			<input>
				<port id="0" precision="FP32">
					<dim>1</dim>
					<dim>256</dim>
					<dim>17</dim>
					<dim>17</dim>
				</port>
			</input>
			<output>
				<port id="1" precision="FP32" names="Mixed_6a_Branch_2_MaxPool_1a_3x3/MaxPool:0">
					<dim>1</dim>
					<dim>256</dim>
					<dim>8</dim>
					<dim>8</dim>
				</port>
				<port id="2" precision="I64">
					<dim>1</dim>
					<dim>256</dim>
					<dim>8</dim>
					<dim>8</dim>
				</port>
			</output>
		</layer>
		<layer id="240" name="Mixed_6a/concat" type="Concat" version="opset1">
			<data axis="1" />
			<input>
				<port id="0" precision="FP32">
					<dim>1</dim>
					<dim>384</dim>
					<dim>8</dim>
					<dim>8</dim>
				</port>
				<port id="1" precision="FP32">
					<dim>1</dim>
					<dim>256</dim>
					<dim>8</dim>
					<dim>8</dim>
				</port>
				<port id="2" precision="FP32">
					<dim>1</dim>
					<dim>256</dim>
					<dim>8</dim>
					<dim>8</dim>
				</port>
			</input>
			<output>
				<port id="3" precision="FP32" names="Mixed_6a/concat:0">
					<dim>1</dim>
					<dim>896</dim>
					<dim>8</dim>
					<dim>8</dim>
				</port>
			</output>
		</layer>
		<layer id="241" name="Block17_1_Branch_0_Conv2d_1x1_BatchNorm/FusedBatchNormV3/mean/Fused_Mul__copy" type="Const" version="opset1">
			<data element_type="f32" shape="128, 896, 1, 1" offset="10840800" size="458752" />
			<output>
				<port id="0" precision="FP32" names="Block17_1_Branch_0_Conv2d_1x1/Conv2D/ReadVariableOp:0">
					<dim>128</dim>
					<dim>896</dim>
					<dim>1</dim>
					<dim>1</dim>
				</port>
			</output>
		</layer>
		<layer id="242" name="Block17_1_Branch_0_Conv2d_1x1/Conv2D" type="Convolution" version="opset1">
			<data strides="1, 1" dilations="1, 1" pads_begin="0, 0" pads_end="0, 0" auto_pad="same_upper" />
			<input>
				<port id="0" precision="FP32">
					<dim>1</dim>
					<dim>896</dim>
					<dim>8</dim>
					<dim>8</dim>
				</port>
				<port id="1" precision="FP32">
					<dim>128</dim>
					<dim>896</dim>
					<dim>1</dim>
					<dim>1</dim>
				</port>
			</input>
			<output>
				<port id="2" precision="FP32">
					<dim>1</dim>
					<dim>128</dim>
					<dim>8</dim>
					<dim>8</dim>
				</port>
			</output>
		</layer>
		<layer id="243" name="data_add_2274822753" type="Const" version="opset1">
			<data element_type="f32" shape="1, 128, 1, 1" offset="11299552" size="512" />
			<output>
				<port id="0" precision="FP32">
					<dim>1</dim>
					<dim>128</dim>
					<dim>1</dim>
					<dim>1</dim>
				</port>
			</output>
		</layer>
		<layer id="244" name="Block17_1_Branch_0_Conv2d_1x1_BatchNorm/FusedBatchNormV3/variance/Fused_Add_" type="Add" version="opset1">
			<data auto_broadcast="numpy" />
			<input>
				<port id="0" precision="FP32">
					<dim>1</dim>
					<dim>128</dim>
					<dim>8</dim>
					<dim>8</dim>
				</port>
				<port id="1" precision="FP32">
					<dim>1</dim>
					<dim>128</dim>
					<dim>1</dim>
					<dim>1</dim>
				</port>
			</input>
			<output>
				<port id="2" precision="FP32" names="Block17_1_Branch_0_Conv2d_1x1_BatchNorm/FusedBatchNormV3:0">
					<dim>1</dim>
					<dim>128</dim>
					<dim>8</dim>
					<dim>8</dim>
				</port>
			</output>
		</layer>
		<layer id="245" name="Block17_1_Branch_0_Conv2d_1x1_Activation/Relu" type="ReLU" version="opset1">
			<input>
				<port id="0" precision="FP32">
					<dim>1</dim>
					<dim>128</dim>
					<dim>8</dim>
					<dim>8</dim>
				</port>
			</input>
			<output>
				<port id="1" precision="FP32" names="Block17_1_Branch_0_Conv2d_1x1_Activation/Relu:0">
					<dim>1</dim>
					<dim>128</dim>
					<dim>8</dim>
					<dim>8</dim>
				</port>
			</output>
		</layer>
		<layer id="246" name="Block17_1_Branch_1_Conv2d_0a_1x1_BatchNorm/FusedBatchNormV3/mean/Fused_Mul__copy" type="Const" version="opset1">
			<data element_type="f32" shape="128, 896, 1, 1" offset="11300064" size="458752" />
			<output>
				<port id="0" precision="FP32" names="Block17_1_Branch_1_Conv2d_0a_1x1/Conv2D/ReadVariableOp:0">
					<dim>128</dim>
					<dim>896</dim>
					<dim>1</dim>
					<dim>1</dim>
				</port>
			</output>
		</layer>
		<layer id="247" name="Block17_1_Branch_1_Conv2d_0a_1x1/Conv2D" type="Convolution" version="opset1">
			<data strides="1, 1" dilations="1, 1" pads_begin="0, 0" pads_end="0, 0" auto_pad="same_upper" />
			<input>
				<port id="0" precision="FP32">
					<dim>1</dim>
					<dim>896</dim>
					<dim>8</dim>
					<dim>8</dim>
				</port>
				<port id="1" precision="FP32">
					<dim>128</dim>
					<dim>896</dim>
					<dim>1</dim>
					<dim>1</dim>
				</port>
			</input>
			<output>
				<port id="2" precision="FP32">
					<dim>1</dim>
					<dim>128</dim>
					<dim>8</dim>
					<dim>8</dim>
				</port>
			</output>
		</layer>
		<layer id="248" name="data_add_2275622761" type="Const" version="opset1">
			<data element_type="f32" shape="1, 128, 1, 1" offset="11758816" size="512" />
			<output>
				<port id="0" precision="FP32">
					<dim>1</dim>
					<dim>128</dim>
					<dim>1</dim>
					<dim>1</dim>
				</port>
			</output>
		</layer>
		<layer id="249" name="Block17_1_Branch_1_Conv2d_0a_1x1_BatchNorm/FusedBatchNormV3/variance/Fused_Add_" type="Add" version="opset1">
			<data auto_broadcast="numpy" />
			<input>
				<port id="0" precision="FP32">
					<dim>1</dim>
					<dim>128</dim>
					<dim>8</dim>
					<dim>8</dim>
				</port>
				<port id="1" precision="FP32">
					<dim>1</dim>
					<dim>128</dim>
					<dim>1</dim>
					<dim>1</dim>
				</port>
			</input>
			<output>
				<port id="2" precision="FP32" names="Block17_1_Branch_1_Conv2d_0a_1x1_BatchNorm/FusedBatchNormV3:0">
					<dim>1</dim>
					<dim>128</dim>
					<dim>8</dim>
					<dim>8</dim>
				</port>
			</output>
		</layer>
		<layer id="250" name="Block17_1_Branch_1_Conv2d_0a_1x1_Activation/Relu" type="ReLU" version="opset1">
			<input>
				<port id="0" precision="FP32">
					<dim>1</dim>
					<dim>128</dim>
					<dim>8</dim>
					<dim>8</dim>
				</port>
			</input>
			<output>
				<port id="1" precision="FP32" names="Block17_1_Branch_1_Conv2d_0a_1x1_Activation/Relu:0">
					<dim>1</dim>
					<dim>128</dim>
					<dim>8</dim>
					<dim>8</dim>
				</port>
			</output>
		</layer>
		<layer id="251" name="Block17_1_Branch_1_Conv2d_0b_1x7_BatchNorm/FusedBatchNormV3/mean/Fused_Mul__copy" type="Const" version="opset1">
			<data element_type="f32" shape="128, 128, 1, 7" offset="11759328" size="458752" />
			<output>
				<port id="0" precision="FP32" names="Block17_1_Branch_1_Conv2d_0b_1x7/Conv2D/ReadVariableOp:0">
					<dim>128</dim>
					<dim>128</dim>
					<dim>1</dim>
					<dim>7</dim>
				</port>
			</output>
		</layer>
		<layer id="252" name="Block17_1_Branch_1_Conv2d_0b_1x7/Conv2D" type="Convolution" version="opset1">
			<data strides="1, 1" dilations="1, 1" pads_begin="0, 0" pads_end="0, 0" auto_pad="same_upper" />
			<input>
				<port id="0" precision="FP32">
					<dim>1</dim>
					<dim>128</dim>
					<dim>8</dim>
					<dim>8</dim>
				</port>
				<port id="1" precision="FP32">
					<dim>128</dim>
					<dim>128</dim>
					<dim>1</dim>
					<dim>7</dim>
				</port>
			</input>
			<output>
				<port id="2" precision="FP32">
					<dim>1</dim>
					<dim>128</dim>
					<dim>8</dim>
					<dim>8</dim>
				</port>
			</output>
		</layer>
		<layer id="253" name="data_add_2276422769" type="Const" version="opset1">
			<data element_type="f32" shape="1, 128, 1, 1" offset="12218080" size="512" />
			<output>
				<port id="0" precision="FP32">
					<dim>1</dim>
					<dim>128</dim>
					<dim>1</dim>
					<dim>1</dim>
				</port>
			</output>
		</layer>
		<layer id="254" name="Block17_1_Branch_1_Conv2d_0b_1x7_BatchNorm/FusedBatchNormV3/variance/Fused_Add_" type="Add" version="opset1">
			<data auto_broadcast="numpy" />
			<input>
				<port id="0" precision="FP32">
					<dim>1</dim>
					<dim>128</dim>
					<dim>8</dim>
					<dim>8</dim>
				</port>
				<port id="1" precision="FP32">
					<dim>1</dim>
					<dim>128</dim>
					<dim>1</dim>
					<dim>1</dim>
				</port>
			</input>
			<output>
				<port id="2" precision="FP32" names="Block17_1_Branch_1_Conv2d_0b_1x7_BatchNorm/FusedBatchNormV3:0">
					<dim>1</dim>
					<dim>128</dim>
					<dim>8</dim>
					<dim>8</dim>
				</port>
			</output>
		</layer>
		<layer id="255" name="Block17_1_Branch_1_Conv2d_0b_1x7_Activation/Relu" type="ReLU" version="opset1">
			<input>
				<port id="0" precision="FP32">
					<dim>1</dim>
					<dim>128</dim>
					<dim>8</dim>
					<dim>8</dim>
				</port>
			</input>
			<output>
				<port id="1" precision="FP32" names="Block17_1_Branch_1_Conv2d_0b_1x7_Activation/Relu:0">
					<dim>1</dim>
					<dim>128</dim>
					<dim>8</dim>
					<dim>8</dim>
				</port>
			</output>
		</layer>
		<layer id="256" name="Block17_1_Branch_1_Conv2d_0c_7x1_BatchNorm/FusedBatchNormV3/mean/Fused_Mul__copy" type="Const" version="opset1">
			<data element_type="f32" shape="128, 128, 7, 1" offset="12218592" size="458752" />
			<output>
				<port id="0" precision="FP32" names="Block17_1_Branch_1_Conv2d_0c_7x1/Conv2D/ReadVariableOp:0">
					<dim>128</dim>
					<dim>128</dim>
					<dim>7</dim>
					<dim>1</dim>
				</port>
			</output>
		</layer>
		<layer id="257" name="Block17_1_Branch_1_Conv2d_0c_7x1/Conv2D" type="Convolution" version="opset1">
			<data strides="1, 1" dilations="1, 1" pads_begin="0, 0" pads_end="0, 0" auto_pad="same_upper" />
			<input>
				<port id="0" precision="FP32">
					<dim>1</dim>
					<dim>128</dim>
					<dim>8</dim>
					<dim>8</dim>
				</port>
				<port id="1" precision="FP32">
					<dim>128</dim>
					<dim>128</dim>
					<dim>7</dim>
					<dim>1</dim>
				</port>
			</input>
			<output>
				<port id="2" precision="FP32">
					<dim>1</dim>
					<dim>128</dim>
					<dim>8</dim>
					<dim>8</dim>
				</port>
			</output>
		</layer>
		<layer id="258" name="data_add_2277222777" type="Const" version="opset1">
			<data element_type="f32" shape="1, 128, 1, 1" offset="12677344" size="512" />
			<output>
				<port id="0" precision="FP32">
					<dim>1</dim>
					<dim>128</dim>
					<dim>1</dim>
					<dim>1</dim>
				</port>
			</output>
		</layer>
		<layer id="259" name="Block17_1_Branch_1_Conv2d_0c_7x1_BatchNorm/FusedBatchNormV3/variance/Fused_Add_" type="Add" version="opset1">
			<data auto_broadcast="numpy" />
			<input>
				<port id="0" precision="FP32">
					<dim>1</dim>
					<dim>128</dim>
					<dim>8</dim>
					<dim>8</dim>
				</port>
				<port id="1" precision="FP32">
					<dim>1</dim>
					<dim>128</dim>
					<dim>1</dim>
					<dim>1</dim>
				</port>
			</input>
			<output>
				<port id="2" precision="FP32" names="Block17_1_Branch_1_Conv2d_0c_7x1_BatchNorm/FusedBatchNormV3:0">
					<dim>1</dim>
					<dim>128</dim>
					<dim>8</dim>
					<dim>8</dim>
				</port>
			</output>
		</layer>
		<layer id="260" name="Block17_1_Branch_1_Conv2d_0c_7x1_Activation/Relu" type="ReLU" version="opset1">
			<input>
				<port id="0" precision="FP32">
					<dim>1</dim>
					<dim>128</dim>
					<dim>8</dim>
					<dim>8</dim>
				</port>
			</input>
			<output>
				<port id="1" precision="FP32" names="Block17_1_Branch_1_Conv2d_0c_7x1_Activation/Relu:0">
					<dim>1</dim>
					<dim>128</dim>
					<dim>8</dim>
					<dim>8</dim>
				</port>
			</output>
		</layer>
		<layer id="261" name="Block17_1_Concatenate/concat" type="Concat" version="opset1">
			<data axis="1" />
			<input>
				<port id="0" precision="FP32">
					<dim>1</dim>
					<dim>128</dim>
					<dim>8</dim>
					<dim>8</dim>
				</port>
				<port id="1" precision="FP32">
					<dim>1</dim>
					<dim>128</dim>
					<dim>8</dim>
					<dim>8</dim>
				</port>
			</input>
			<output>
				<port id="2" precision="FP32" names="Block17_1_Concatenate/concat:0">
					<dim>1</dim>
					<dim>256</dim>
					<dim>8</dim>
					<dim>8</dim>
				</port>
			</output>
		</layer>
		<layer id="262" name="Block17_1_ScaleSum/mul/Fused_Mul__copy" type="Const" version="opset1">
			<data element_type="f32" shape="896, 256, 1, 1" offset="12677856" size="917504" />
			<output>
				<port id="0" precision="FP32" names="Block17_1_Conv2d_1x1/Conv2D/ReadVariableOp:0">
					<dim>896</dim>
					<dim>256</dim>
					<dim>1</dim>
					<dim>1</dim>
				</port>
			</output>
		</layer>
		<layer id="263" name="Block17_1_Conv2d_1x1/Conv2D" type="Convolution" version="opset1">
			<data strides="1, 1" dilations="1, 1" pads_begin="0, 0" pads_end="0, 0" auto_pad="same_upper" />
			<input>
				<port id="0" precision="FP32">
					<dim>1</dim>
					<dim>256</dim>
					<dim>8</dim>
					<dim>8</dim>
				</port>
				<port id="1" precision="FP32">
					<dim>896</dim>
					<dim>256</dim>
					<dim>1</dim>
					<dim>1</dim>
				</port>
			</input>
			<output>
				<port id="2" precision="FP32">
					<dim>1</dim>
					<dim>896</dim>
					<dim>8</dim>
					<dim>8</dim>
				</port>
			</output>
		</layer>
		<layer id="264" name="data_add_2278022785" type="Const" version="opset1">
			<data element_type="f32" shape="1, 896, 1, 1" offset="13595360" size="3584" />
			<output>
				<port id="0" precision="FP32">
					<dim>1</dim>
					<dim>896</dim>
					<dim>1</dim>
					<dim>1</dim>
				</port>
			</output>
		</layer>
		<layer id="265" name="Block17_1_Conv2d_1x1/BiasAdd/Add/Fused_Add_" type="Add" version="opset1">
			<data auto_broadcast="numpy" />
			<input>
				<port id="0" precision="FP32">
					<dim>1</dim>
					<dim>896</dim>
					<dim>8</dim>
					<dim>8</dim>
				</port>
				<port id="1" precision="FP32">
					<dim>1</dim>
					<dim>896</dim>
					<dim>1</dim>
					<dim>1</dim>
				</port>
			</input>
			<output>
				<port id="2" precision="FP32" names="Block17_1_ScaleSum/mul:0">
					<dim>1</dim>
					<dim>896</dim>
					<dim>8</dim>
					<dim>8</dim>
				</port>
			</output>
		</layer>
		<layer id="266" name="Block17_1_ScaleSum/add" type="Add" version="opset1">
			<data auto_broadcast="numpy" />
			<input>
				<port id="0" precision="FP32">
					<dim>1</dim>
					<dim>896</dim>
					<dim>8</dim>
					<dim>8</dim>
				</port>
				<port id="1" precision="FP32">
					<dim>1</dim>
					<dim>896</dim>
					<dim>8</dim>
					<dim>8</dim>
				</port>
			</input>
			<output>
				<port id="2" precision="FP32" names="Block17_1_ScaleSum/add:0">
					<dim>1</dim>
					<dim>896</dim>
					<dim>8</dim>
					<dim>8</dim>
				</port>
			</output>
		</layer>
		<layer id="267" name="Block17_1_Activation/Relu" type="ReLU" version="opset1">
			<input>
				<port id="0" precision="FP32">
					<dim>1</dim>
					<dim>896</dim>
					<dim>8</dim>
					<dim>8</dim>
				</port>
			</input>
			<output>
				<port id="1" precision="FP32" names="Block17_1_Activation/Relu:0">
					<dim>1</dim>
					<dim>896</dim>
					<dim>8</dim>
					<dim>8</dim>
				</port>
			</output>
		</layer>
		<layer id="268" name="Block17_2_Branch_0_Conv2d_1x1_BatchNorm/FusedBatchNormV3/mean/Fused_Mul__copy" type="Const" version="opset1">
			<data element_type="f32" shape="128, 896, 1, 1" offset="13598944" size="458752" />
			<output>
				<port id="0" precision="FP32" names="Block17_2_Branch_0_Conv2d_1x1/Conv2D/ReadVariableOp:0">
					<dim>128</dim>
					<dim>896</dim>
					<dim>1</dim>
					<dim>1</dim>
				</port>
			</output>
		</layer>
		<layer id="269" name="Block17_2_Branch_0_Conv2d_1x1/Conv2D" type="Convolution" version="opset1">
			<data strides="1, 1" dilations="1, 1" pads_begin="0, 0" pads_end="0, 0" auto_pad="same_upper" />
			<input>
				<port id="0" precision="FP32">
					<dim>1</dim>
					<dim>896</dim>
					<dim>8</dim>
					<dim>8</dim>
				</port>
				<port id="1" precision="FP32">
					<dim>128</dim>
					<dim>896</dim>
					<dim>1</dim>
					<dim>1</dim>
				</port>
			</input>
			<output>
				<port id="2" precision="FP32">
					<dim>1</dim>
					<dim>128</dim>
					<dim>8</dim>
					<dim>8</dim>
				</port>
			</output>
		</layer>
		<layer id="270" name="data_add_2278822793" type="Const" version="opset1">
			<data element_type="f32" shape="1, 128, 1, 1" offset="14057696" size="512" />
			<output>
				<port id="0" precision="FP32">
					<dim>1</dim>
					<dim>128</dim>
					<dim>1</dim>
					<dim>1</dim>
				</port>
			</output>
		</layer>
		<layer id="271" name="Block17_2_Branch_0_Conv2d_1x1_BatchNorm/FusedBatchNormV3/variance/Fused_Add_" type="Add" version="opset1">
			<data auto_broadcast="numpy" />
			<input>
				<port id="0" precision="FP32">
					<dim>1</dim>
					<dim>128</dim>
					<dim>8</dim>
					<dim>8</dim>
				</port>
				<port id="1" precision="FP32">
					<dim>1</dim>
					<dim>128</dim>
					<dim>1</dim>
					<dim>1</dim>
				</port>
			</input>
			<output>
				<port id="2" precision="FP32" names="Block17_2_Branch_0_Conv2d_1x1_BatchNorm/FusedBatchNormV3:0">
					<dim>1</dim>
					<dim>128</dim>
					<dim>8</dim>
					<dim>8</dim>
				</port>
			</output>
		</layer>
		<layer id="272" name="Block17_2_Branch_0_Conv2d_1x1_Activation/Relu" type="ReLU" version="opset1">
			<input>
				<port id="0" precision="FP32">
					<dim>1</dim>
					<dim>128</dim>
					<dim>8</dim>
					<dim>8</dim>
				</port>
			</input>
			<output>
				<port id="1" precision="FP32" names="Block17_2_Branch_0_Conv2d_1x1_Activation/Relu:0">
					<dim>1</dim>
					<dim>128</dim>
					<dim>8</dim>
					<dim>8</dim>
				</port>
			</output>
		</layer>
		<layer id="273" name="Block17_2_Branch_1_Conv2d_0a_1x1_BatchNorm/FusedBatchNormV3/mean/Fused_Mul__copy" type="Const" version="opset1">
			<data element_type="f32" shape="128, 896, 1, 1" offset="14058208" size="458752" />
			<output>
				<port id="0" precision="FP32" names="Block17_2_Branch_1_Conv2d_0a_1x1/Conv2D/ReadVariableOp:0">
					<dim>128</dim>
					<dim>896</dim>
					<dim>1</dim>
					<dim>1</dim>
				</port>
			</output>
		</layer>
		<layer id="274" name="Block17_2_Branch_1_Conv2d_0a_1x1/Conv2D" type="Convolution" version="opset1">
			<data strides="1, 1" dilations="1, 1" pads_begin="0, 0" pads_end="0, 0" auto_pad="same_upper" />
			<input>
				<port id="0" precision="FP32">
					<dim>1</dim>
					<dim>896</dim>
					<dim>8</dim>
					<dim>8</dim>
				</port>
				<port id="1" precision="FP32">
					<dim>128</dim>
					<dim>896</dim>
					<dim>1</dim>
					<dim>1</dim>
				</port>
			</input>
			<output>
				<port id="2" precision="FP32">
					<dim>1</dim>
					<dim>128</dim>
					<dim>8</dim>
					<dim>8</dim>
				</port>
			</output>
		</layer>
		<layer id="275" name="data_add_2279622801" type="Const" version="opset1">
			<data element_type="f32" shape="1, 128, 1, 1" offset="14516960" size="512" />
			<output>
				<port id="0" precision="FP32">
					<dim>1</dim>
					<dim>128</dim>
					<dim>1</dim>
					<dim>1</dim>
				</port>
			</output>
		</layer>
		<layer id="276" name="Block17_2_Branch_1_Conv2d_0a_1x1_BatchNorm/FusedBatchNormV3/variance/Fused_Add_" type="Add" version="opset1">
			<data auto_broadcast="numpy" />
			<input>
				<port id="0" precision="FP32">
					<dim>1</dim>
					<dim>128</dim>
					<dim>8</dim>
					<dim>8</dim>
				</port>
				<port id="1" precision="FP32">
					<dim>1</dim>
					<dim>128</dim>
					<dim>1</dim>
					<dim>1</dim>
				</port>
			</input>
			<output>
				<port id="2" precision="FP32" names="Block17_2_Branch_1_Conv2d_0a_1x1_BatchNorm/FusedBatchNormV3:0">
					<dim>1</dim>
					<dim>128</dim>
					<dim>8</dim>
					<dim>8</dim>
				</port>
			</output>
		</layer>
		<layer id="277" name="Block17_2_Branch_1_Conv2d_0a_1x1_Activation/Relu" type="ReLU" version="opset1">
			<input>
				<port id="0" precision="FP32">
					<dim>1</dim>
					<dim>128</dim>
					<dim>8</dim>
					<dim>8</dim>
				</port>
			</input>
			<output>
				<port id="1" precision="FP32" names="Block17_2_Branch_1_Conv2d_0a_1x1_Activation/Relu:0">
					<dim>1</dim>
					<dim>128</dim>
					<dim>8</dim>
					<dim>8</dim>
				</port>
			</output>
		</layer>
		<layer id="278" name="Block17_2_Branch_1_Conv2d_0b_1x7_BatchNorm/FusedBatchNormV3/mean/Fused_Mul__copy" type="Const" version="opset1">
			<data element_type="f32" shape="128, 128, 1, 7" offset="14517472" size="458752" />
			<output>
				<port id="0" precision="FP32" names="Block17_2_Branch_1_Conv2d_0b_1x7/Conv2D/ReadVariableOp:0">
					<dim>128</dim>
					<dim>128</dim>
					<dim>1</dim>
					<dim>7</dim>
				</port>
			</output>
		</layer>
		<layer id="279" name="Block17_2_Branch_1_Conv2d_0b_1x7/Conv2D" type="Convolution" version="opset1">
			<data strides="1, 1" dilations="1, 1" pads_begin="0, 0" pads_end="0, 0" auto_pad="same_upper" />
			<input>
				<port id="0" precision="FP32">
					<dim>1</dim>
					<dim>128</dim>
					<dim>8</dim>
					<dim>8</dim>
				</port>
				<port id="1" precision="FP32">
					<dim>128</dim>
					<dim>128</dim>
					<dim>1</dim>
					<dim>7</dim>
				</port>
			</input>
			<output>
				<port id="2" precision="FP32">
					<dim>1</dim>
					<dim>128</dim>
					<dim>8</dim>
					<dim>8</dim>
				</port>
			</output>
		</layer>
		<layer id="280" name="data_add_2280422809" type="Const" version="opset1">
			<data element_type="f32" shape="1, 128, 1, 1" offset="14976224" size="512" />
			<output>
				<port id="0" precision="FP32">
					<dim>1</dim>
					<dim>128</dim>
					<dim>1</dim>
					<dim>1</dim>
				</port>
			</output>
		</layer>
		<layer id="281" name="Block17_2_Branch_1_Conv2d_0b_1x7_BatchNorm/FusedBatchNormV3/variance/Fused_Add_" type="Add" version="opset1">
			<data auto_broadcast="numpy" />
			<input>
				<port id="0" precision="FP32">
					<dim>1</dim>
					<dim>128</dim>
					<dim>8</dim>
					<dim>8</dim>
				</port>
				<port id="1" precision="FP32">
					<dim>1</dim>
					<dim>128</dim>
					<dim>1</dim>
					<dim>1</dim>
				</port>
			</input>
			<output>
				<port id="2" precision="FP32" names="Block17_2_Branch_1_Conv2d_0b_1x7_BatchNorm/FusedBatchNormV3:0">
					<dim>1</dim>
					<dim>128</dim>
					<dim>8</dim>
					<dim>8</dim>
				</port>
			</output>
		</layer>
		<layer id="282" name="Block17_2_Branch_1_Conv2d_0b_1x7_Activation/Relu" type="ReLU" version="opset1">
			<input>
				<port id="0" precision="FP32">
					<dim>1</dim>
					<dim>128</dim>
					<dim>8</dim>
					<dim>8</dim>
				</port>
			</input>
			<output>
				<port id="1" precision="FP32" names="Block17_2_Branch_1_Conv2d_0b_1x7_Activation/Relu:0">
					<dim>1</dim>
					<dim>128</dim>
					<dim>8</dim>
					<dim>8</dim>
				</port>
			</output>
		</layer>
		<layer id="283" name="Block17_2_Branch_1_Conv2d_0c_7x1_BatchNorm/FusedBatchNormV3/mean/Fused_Mul__copy" type="Const" version="opset1">
			<data element_type="f32" shape="128, 128, 7, 1" offset="14976736" size="458752" />
			<output>
				<port id="0" precision="FP32" names="Block17_2_Branch_1_Conv2d_0c_7x1/Conv2D/ReadVariableOp:0">
					<dim>128</dim>
					<dim>128</dim>
					<dim>7</dim>
					<dim>1</dim>
				</port>
			</output>
		</layer>
		<layer id="284" name="Block17_2_Branch_1_Conv2d_0c_7x1/Conv2D" type="Convolution" version="opset1">
			<data strides="1, 1" dilations="1, 1" pads_begin="0, 0" pads_end="0, 0" auto_pad="same_upper" />
			<input>
				<port id="0" precision="FP32">
					<dim>1</dim>
					<dim>128</dim>
					<dim>8</dim>
					<dim>8</dim>
				</port>
				<port id="1" precision="FP32">
					<dim>128</dim>
					<dim>128</dim>
					<dim>7</dim>
					<dim>1</dim>
				</port>
			</input>
			<output>
				<port id="2" precision="FP32">
					<dim>1</dim>
					<dim>128</dim>
					<dim>8</dim>
					<dim>8</dim>
				</port>
			</output>
		</layer>
		<layer id="285" name="data_add_2281222817" type="Const" version="opset1">
			<data element_type="f32" shape="1, 128, 1, 1" offset="15435488" size="512" />
			<output>
				<port id="0" precision="FP32">
					<dim>1</dim>
					<dim>128</dim>
					<dim>1</dim>
					<dim>1</dim>
				</port>
			</output>
		</layer>
		<layer id="286" name="Block17_2_Branch_1_Conv2d_0c_7x1_BatchNorm/FusedBatchNormV3/variance/Fused_Add_" type="Add" version="opset1">
			<data auto_broadcast="numpy" />
			<input>
				<port id="0" precision="FP32">
					<dim>1</dim>
					<dim>128</dim>
					<dim>8</dim>
					<dim>8</dim>
				</port>
				<port id="1" precision="FP32">
					<dim>1</dim>
					<dim>128</dim>
					<dim>1</dim>
					<dim>1</dim>
				</port>
			</input>
			<output>
				<port id="2" precision="FP32" names="Block17_2_Branch_1_Conv2d_0c_7x1_BatchNorm/FusedBatchNormV3:0">
					<dim>1</dim>
					<dim>128</dim>
					<dim>8</dim>
					<dim>8</dim>
				</port>
			</output>
		</layer>
		<layer id="287" name="Block17_2_Branch_1_Conv2d_0c_7x1_Activation/Relu" type="ReLU" version="opset1">
			<input>
				<port id="0" precision="FP32">
					<dim>1</dim>
					<dim>128</dim>
					<dim>8</dim>
					<dim>8</dim>
				</port>
			</input>
			<output>
				<port id="1" precision="FP32" names="Block17_2_Branch_1_Conv2d_0c_7x1_Activation/Relu:0">
					<dim>1</dim>
					<dim>128</dim>
					<dim>8</dim>
					<dim>8</dim>
				</port>
			</output>
		</layer>
		<layer id="288" name="Block17_2_Concatenate/concat" type="Concat" version="opset1">
			<data axis="1" />
			<input>
				<port id="0" precision="FP32">
					<dim>1</dim>
					<dim>128</dim>
					<dim>8</dim>
					<dim>8</dim>
				</port>
				<port id="1" precision="FP32">
					<dim>1</dim>
					<dim>128</dim>
					<dim>8</dim>
					<dim>8</dim>
				</port>
			</input>
			<output>
				<port id="2" precision="FP32" names="Block17_2_Concatenate/concat:0">
					<dim>1</dim>
					<dim>256</dim>
					<dim>8</dim>
					<dim>8</dim>
				</port>
			</output>
		</layer>
		<layer id="289" name="Block17_2_ScaleSum/mul/Fused_Mul__copy" type="Const" version="opset1">
			<data element_type="f32" shape="896, 256, 1, 1" offset="15436000" size="917504" />
			<output>
				<port id="0" precision="FP32" names="Block17_2_Conv2d_1x1/Conv2D/ReadVariableOp:0">
					<dim>896</dim>
					<dim>256</dim>
					<dim>1</dim>
					<dim>1</dim>
				</port>
			</output>
		</layer>
		<layer id="290" name="Block17_2_Conv2d_1x1/Conv2D" type="Convolution" version="opset1">
			<data strides="1, 1" dilations="1, 1" pads_begin="0, 0" pads_end="0, 0" auto_pad="same_upper" />
			<input>
				<port id="0" precision="FP32">
					<dim>1</dim>
					<dim>256</dim>
					<dim>8</dim>
					<dim>8</dim>
				</port>
				<port id="1" precision="FP32">
					<dim>896</dim>
					<dim>256</dim>
					<dim>1</dim>
					<dim>1</dim>
				</port>
			</input>
			<output>
				<port id="2" precision="FP32">
					<dim>1</dim>
					<dim>896</dim>
					<dim>8</dim>
					<dim>8</dim>
				</port>
			</output>
		</layer>
		<layer id="291" name="data_add_2282022825" type="Const" version="opset1">
			<data element_type="f32" shape="1, 896, 1, 1" offset="16353504" size="3584" />
			<output>
				<port id="0" precision="FP32">
					<dim>1</dim>
					<dim>896</dim>
					<dim>1</dim>
					<dim>1</dim>
				</port>
			</output>
		</layer>
		<layer id="292" name="Block17_2_Conv2d_1x1/BiasAdd/Add/Fused_Add_" type="Add" version="opset1">
			<data auto_broadcast="numpy" />
			<input>
				<port id="0" precision="FP32">
					<dim>1</dim>
					<dim>896</dim>
					<dim>8</dim>
					<dim>8</dim>
				</port>
				<port id="1" precision="FP32">
					<dim>1</dim>
					<dim>896</dim>
					<dim>1</dim>
					<dim>1</dim>
				</port>
			</input>
			<output>
				<port id="2" precision="FP32" names="Block17_2_ScaleSum/mul:0">
					<dim>1</dim>
					<dim>896</dim>
					<dim>8</dim>
					<dim>8</dim>
				</port>
			</output>
		</layer>
		<layer id="293" name="Block17_2_ScaleSum/add" type="Add" version="opset1">
			<data auto_broadcast="numpy" />
			<input>
				<port id="0" precision="FP32">
					<dim>1</dim>
					<dim>896</dim>
					<dim>8</dim>
					<dim>8</dim>
				</port>
				<port id="1" precision="FP32">
					<dim>1</dim>
					<dim>896</dim>
					<dim>8</dim>
					<dim>8</dim>
				</port>
			</input>
			<output>
				<port id="2" precision="FP32" names="Block17_2_ScaleSum/add:0">
					<dim>1</dim>
					<dim>896</dim>
					<dim>8</dim>
					<dim>8</dim>
				</port>
			</output>
		</layer>
		<layer id="294" name="Block17_2_Activation/Relu" type="ReLU" version="opset1">
			<input>
				<port id="0" precision="FP32">
					<dim>1</dim>
					<dim>896</dim>
					<dim>8</dim>
					<dim>8</dim>
				</port>
			</input>
			<output>
				<port id="1" precision="FP32" names="Block17_2_Activation/Relu:0">
					<dim>1</dim>
					<dim>896</dim>
					<dim>8</dim>
					<dim>8</dim>
				</port>
			</output>
		</layer>
		<layer id="295" name="Block17_3_Branch_0_Conv2d_1x1_BatchNorm/FusedBatchNormV3/mean/Fused_Mul__copy" type="Const" version="opset1">
			<data element_type="f32" shape="128, 896, 1, 1" offset="16357088" size="458752" />
			<output>
				<port id="0" precision="FP32" names="Block17_3_Branch_0_Conv2d_1x1/Conv2D/ReadVariableOp:0">
					<dim>128</dim>
					<dim>896</dim>
					<dim>1</dim>
					<dim>1</dim>
				</port>
			</output>
		</layer>
		<layer id="296" name="Block17_3_Branch_0_Conv2d_1x1/Conv2D" type="Convolution" version="opset1">
			<data strides="1, 1" dilations="1, 1" pads_begin="0, 0" pads_end="0, 0" auto_pad="same_upper" />
			<input>
				<port id="0" precision="FP32">
					<dim>1</dim>
					<dim>896</dim>
					<dim>8</dim>
					<dim>8</dim>
				</port>
				<port id="1" precision="FP32">
					<dim>128</dim>
					<dim>896</dim>
					<dim>1</dim>
					<dim>1</dim>
				</port>
			</input>
			<output>
				<port id="2" precision="FP32">
					<dim>1</dim>
					<dim>128</dim>
					<dim>8</dim>
					<dim>8</dim>
				</port>
			</output>
		</layer>
		<layer id="297" name="data_add_2282822833" type="Const" version="opset1">
			<data element_type="f32" shape="1, 128, 1, 1" offset="16815840" size="512" />
			<output>
				<port id="0" precision="FP32">
					<dim>1</dim>
					<dim>128</dim>
					<dim>1</dim>
					<dim>1</dim>
				</port>
			</output>
		</layer>
		<layer id="298" name="Block17_3_Branch_0_Conv2d_1x1_BatchNorm/FusedBatchNormV3/variance/Fused_Add_" type="Add" version="opset1">
			<data auto_broadcast="numpy" />
			<input>
				<port id="0" precision="FP32">
					<dim>1</dim>
					<dim>128</dim>
					<dim>8</dim>
					<dim>8</dim>
				</port>
				<port id="1" precision="FP32">
					<dim>1</dim>
					<dim>128</dim>
					<dim>1</dim>
					<dim>1</dim>
				</port>
			</input>
			<output>
				<port id="2" precision="FP32" names="Block17_3_Branch_0_Conv2d_1x1_BatchNorm/FusedBatchNormV3:0">
					<dim>1</dim>
					<dim>128</dim>
					<dim>8</dim>
					<dim>8</dim>
				</port>
			</output>
		</layer>
		<layer id="299" name="Block17_3_Branch_0_Conv2d_1x1_Activation/Relu" type="ReLU" version="opset1">
			<input>
				<port id="0" precision="FP32">
					<dim>1</dim>
					<dim>128</dim>
					<dim>8</dim>
					<dim>8</dim>
				</port>
			</input>
			<output>
				<port id="1" precision="FP32" names="Block17_3_Branch_0_Conv2d_1x1_Activation/Relu:0">
					<dim>1</dim>
					<dim>128</dim>
					<dim>8</dim>
…
		<edge from-layer="70" from-port="1" to-layer="87" to-port="0" />
		<edge from-layer="71" from-port="0" to-layer="72" to-port="1" />
		<edge from-layer="72" from-port="2" to-layer="74" to-port="0" />
		<edge from-layer="73" from-port="0" to-layer="74" to-port="1" />
		<edge from-layer="74" from-port="2" to-layer="75" to-port="0" />
		<edge from-layer="75" from-port="1" to-layer="101" to-port="0" />
		<edge from-layer="76" from-port="0" to-layer="77" to-port="1" />
		<edge from-layer="77" from-port="2" to-layer="79" to-port="0" />
		<edge from-layer="78" from-port="0" to-layer="79" to-port="1" />
		<edge from-layer="79" from-port="2" to-layer="80" to-port="0" />
		<edge from-layer="80" from-port="1" to-layer="82" to-port="0" />
		<edge from-layer="81" from-port="0" to-layer="82" to-port="1" />
		<edge from-layer="82" from-port="2" to-layer="84" to-port="0" />
		<edge from-layer="83" from-port="0" to-layer="84" to-port="1" />
		<edge from-layer="84" from-port="2" to-layer="85" to-port="0" />
		<edge from-layer="85" from-port="1" to-layer="101" to-port="1" />
		<edge from-layer="86" from-port="0" to-layer="87" to-port="1" />
		<edge from-layer="87" from-port="2" to-layer="89" to-port="0" />
		<edge from-layer="88" from-port="0" to-layer="89" to-port="1" />
		<edge from-layer="89" from-port="2" to-layer="90" to-port="0" />
		<edge from-layer="90" from-port="1" to-layer="92" to-port="0" />
		<edge from-layer="91" from-port="0" to-layer="92" to-port="1" />
		<edge from-layer="92" from-port="2" to-layer="94" to-port="0" />
		<edge from-layer="93" from-port="0" to-layer="94" to-port="1" />
		<edge from-layer="94" from-port="2" to-layer="95" to-port="0" />
		<edge from-layer="95" from-port="1" to-layer="97" to-port="0" />
		<edge from-layer="96" from-port="0" to-layer="97" to-port="1" />
		<edge from-layer="97" from-port="2" to-layer="99" to-port="0" />
		<edge from-layer="98" from-port="0" to-layer="99" to-port="1" />
		<edge from-layer="99" from-port="2" to-layer="100" to-port="0" />
		<edge from-layer="100" from-port="1" to-layer="101" to-port="2" />
		<edge from-layer="101" from-port="3" to-layer="103" to-port="0" />
		<edge from-layer="102" from-port="0" to-layer="103" to-port="1" />
		<edge from-layer="103" from-port="2" to-layer="105" to-port="0" />
		<edge from-layer="104" from-port="0" to-layer="105" to-port="1" />
		<edge from-layer="105" from-port="2" to-layer="106" to-port="1" />
		<edge from-layer="106" from-port="2" to-layer="107" to-port="0" />
		<edge from-layer="107" from-port="1" to-layer="124" to-port="0" />
		<edge from-layer="107" from-port="1" to-layer="143" to-port="0" />
		<edge from-layer="107" from-port="1" to-layer="114" to-port="0" />
		<edge from-layer="107" from-port="1" to-layer="109" to-port="0" />
		<edge from-layer="108" from-port="0" to-layer="109" to-port="1" />
		<edge from-layer="109" from-port="2" to-layer="111" to-port="0" />
		<edge from-layer="110" from-port="0" to-layer="111" to-port="1" />
		<edge from-layer="111" from-port="2" to-layer="112" to-port="0" />
		<edge from-layer="112" from-port="1" to-layer="138" to-port="0" />
		<edge from-layer="113" from-port="0" to-layer="114" to-port="1" />
		<edge from-layer="114" from-port="2" to-layer="116" to-port="0" />
		<edge from-layer="115" from-port="0" to-layer="116" to-port="1" />
		<edge from-layer="116" from-port="2" to-layer="117" to-port="0" />
		<edge from-layer="117" from-port="1" to-layer="119" to-port="0" />
		<edge from-layer="118" from-port="0" to-layer="119" to-port="1" />
		<edge from-layer="119" from-port="2" to-layer="121" to-port="0" />
		<edge from-layer="120" from-port="0" to-layer="121" to-port="1" />
		<edge from-layer="121" from-port="2" to-layer="122" to-port="0" />
		<edge from-layer="122" from-port="1" to-layer="138" to-port="1" />
		<edge from-layer="123" from-port="0" to-layer="124" to-port="1" />
		<edge from-layer="124" from-port="2" to-layer="126" to-port="0" />
		<edge from-layer="125" from-port="0" to-layer="126" to-port="1" />
		<edge from-layer="126" from-port="2" to-layer="127" to-port="0" />
		<edge from-layer="127" from-port="1" to-layer="129" to-port="0" />
		<edge from-layer="128" from-port="0" to-layer="129" to-port="1" />
		<edge from-layer="129" from-port="2" to-layer="131" to-port="0" />
		<edge from-layer="130" from-port="0" to-layer="131" to-port="1" />
		<edge from-layer="131" from-port="2" to-layer="132" to-port="0" />
		<edge from-layer="132" from-port="1" to-layer="134" to-port="0" />
		<edge from-layer="133" from-port="0" to-layer="134" to-port="1" />
		<edge from-layer="134" from-port="2" to-layer="136" to-port="0" />
		<edge from-layer="135" from-port="0" to-layer="136" to-port="1" />
		<edge from-layer="136" from-port="2" to-layer="137" to-port="0" />
		<edge from-layer="137" from-port="1" to-layer="138" to-port="2" />
		<edge from-layer="138" from-port="3" to-layer="140" to-port="0" />
		<edge from-layer="139" from-port="0" to-layer="140" to-port="1" />
		<edge from-layer="140" from-port="2" to-layer="142" to-port="0" />
		<edge from-layer="141" from-port="0" to-layer="142" to-port="1" />
		<edge from-layer="142" from-port="2" to-layer="143" to-port="1" />
		<edge from-layer="143" from-port="2" to-layer="144" to-port="0" />
		<edge from-layer="144" from-port="1" to-layer="146" to-port="0" />
		<edge from-layer="144" from-port="1" to-layer="180" to-port="0" />
		<edge from-layer="144" from-port="1" to-layer="161" to-port="0" />
		<edge from-layer="144" from-port="1" to-layer="151" to-port="0" />
		<edge from-layer="145" from-port="0" to-layer="146" to-port="1" />
		<edge from-layer="146" from-port="2" to-layer="148" to-port="0" />
		<edge from-layer="147" from-port="0" to-layer="148" to-port="1" />
		<edge from-layer="148" from-port="2" to-layer="149" to-port="0" />
		<edge from-layer="149" from-port="1" to-layer="175" to-port="0" />
		<edge from-layer="150" from-port="0" to-layer="151" to-port="1" />
		<edge from-layer="151" from-port="2" to-layer="153" to-port="0" />
		<edge from-layer="152" from-port="0" to-layer="153" to-port="1" />
		<edge from-layer="153" from-port="2" to-layer="154" to-port="0" />
		<edge from-layer="154" from-port="1" to-layer="156" to-port="0" />
		<edge from-layer="155" from-port="0" to-layer="156" to-port="1" />
		<edge from-layer="156" from-port="2" to-layer="158" to-port="0" />
		<edge from-layer="157" from-port="0" to-layer="158" to-port="1" />
		<edge from-layer="158" from-port="2" to-layer="159" to-port="0" />
		<edge from-layer="159" from-port="1" to-layer="175" to-port="1" />
		<edge from-layer="160" from-port="0" to-layer="161" to-port="1" />
		<edge from-layer="161" from-port="2" to-layer="163" to-port="0" />
		<edge from-layer="162" from-port="0" to-layer="163" to-port="1" />
		<edge from-layer="163" from-port="2" to-layer="164" to-port="0" />
		<edge from-layer="164" from-port="1" to-layer="166" to-port="0" />
		<edge from-layer="165" from-port="0" to-layer="166" to-port="1" />
		<edge from-layer="166" from-port="2" to-layer="168" to-port="0" />
		<edge from-layer="167" from-port="0" to-layer="168" to-port="1" />
		<edge from-layer="168" from-port="2" to-layer="169" to-port="0" />
		<edge from-layer="169" from-port="1" to-layer="171" to-port="0" />
		<edge from-layer="170" from-port="0" to-layer="171" to-port="1" />
		<edge from-layer="171" from-port="2" to-layer="173" to-port="0" />
		<edge from-layer="172" from-port="0" to-layer="173" to-port="1" />
		<edge from-layer="173" from-port="2" to-layer="174" to-port="0" />
		<edge from-layer="174" from-port="1" to-layer="175" to-port="2" />
		<edge from-layer="175" from-port="3" to-layer="177" to-port="0" />
		<edge from-layer="176" from-port="0" to-layer="177" to-port="1" />
		<edge from-layer="177" from-port="2" to-layer="179" to-port="0" />
		<edge from-layer="178" from-port="0" to-layer="179" to-port="1" />
		<edge from-layer="179" from-port="2" to-layer="180" to-port="1" />
		<edge from-layer="180" from-port="2" to-layer="181" to-port="0" />
		<edge from-layer="181" from-port="1" to-layer="198" to-port="0" />
		<edge from-layer="181" from-port="1" to-layer="217" to-port="0" />
		<edge from-layer="181" from-port="1" to-layer="188" to-port="0" />
		<edge from-layer="181" from-port="1" to-layer="183" to-port="0" />
		<edge from-layer="182" from-port="0" to-layer="183" to-port="1" />
		<edge from-layer="183" from-port="2" to-layer="185" to-port="0" />
		<edge from-layer="184" from-port="0" to-layer="185" to-port="1" />
		<edge from-layer="185" from-port="2" to-layer="186" to-port="0" />
		<edge from-layer="186" from-port="1" to-layer="212" to-port="0" />
		<edge from-layer="187" from-port="0" to-layer="188" to-port="1" />
		<edge from-layer="188" from-port="2" to-layer="190" to-port="0" />
		<edge from-layer="189" from-port="0" to-layer="190" to-port="1" />
		<edge from-layer="190" from-port="2" to-layer="191" to-port="0" />
		<edge from-layer="191" from-port="1" to-layer="193" to-port="0" />
		<edge from-layer="192" from-port="0" to-layer="193" to-port="1" />
		<edge from-layer="193" from-port="2" to-layer="195" to-port="0" />
		<edge from-layer="194" from-port="0" to-layer="195" to-port="1" />
		<edge from-layer="195" from-port="2" to-layer="196" to-port="0" />
		<edge from-layer="196" from-port="1" to-layer="212" to-port="1" />
		<edge from-layer="197" from-port="0" to-layer="198" to-port="1" />
		<edge from-layer="198" from-port="2" to-layer="200" to-port="0" />
		<edge from-layer="199" from-port="0" to-layer="200" to-port="1" />
		<edge from-layer="200" from-port="2" to-layer="201" to-port="0" />
		<edge from-layer="201" from-port="1" to-layer="203" to-port="0" />
		<edge from-layer="202" from-port="0" to-layer="203" to-port="1" />
		<edge from-layer="203" from-port="2" to-layer="205" to-port="0" />
		<edge from-layer="204" from-port="0" to-layer="205" to-port="1" />
		<edge from-layer="205" from-port="2" to-layer="206" to-port="0" />
		<edge from-layer="206" from-port="1" to-layer="208" to-port="0" />
		<edge from-layer="207" from-port="0" to-layer="208" to-port="1" />
		<edge from-layer="208" from-port="2" to-layer="210" to-port="0" />
		<edge from-layer="209" from-port="0" to-layer="210" to-port="1" />
		<edge from-layer="210" from-port="2" to-layer="211" to-port="0" />
		<edge from-layer="211" from-port="1" to-layer="212" to-port="2" />
		<edge from-layer="212" from-port="3" to-layer="214" to-port="0" />
		<edge from-layer="213" from-port="0" to-layer="214" to-port="1" />
		<edge from-layer="214" from-port="2" to-layer="216" to-port="0" />
		<edge from-layer="215" from-port="0" to-layer="216" to-port="1" />
		<edge from-layer="216" from-port="2" to-layer="217" to-port="1" />
		<edge from-layer="217" from-port="2" to-layer="218" to-port="0" />
		<edge from-layer="218" from-port="1" to-layer="239" to-port="0" />
		<edge from-layer="218" from-port="1" to-layer="225" to-port="0" />
		<edge from-layer="218" from-port="1" to-layer="220" to-port="0" />
		<edge from-layer="219" from-port="0" to-layer="220" to-port="1" />
		<edge from-layer="220" from-port="2" to-layer="222" to-port="0" />
		<edge from-layer="221" from-port="0" to-layer="222" to-port="1" />
		<edge from-layer="222" from-port="2" to-layer="223" to-port="0" />
		<edge from-layer="223" from-port="1" to-layer="240" to-port="0" />
		<edge from-layer="224" from-port="0" to-layer="225" to-port="1" />
		<edge from-layer="225" from-port="2" to-layer="227" to-port="0" />
		<edge from-layer="226" from-port="0" to-layer="227" to-port="1" />
		<edge from-layer="227" from-port="2" to-layer="228" to-port="0" />
		<edge from-layer="228" from-port="1" to-layer="230" to-port="0" />
		<edge from-layer="229" from-port="0" to-layer="230" to-port="1" />
		<edge from-layer="230" from-port="2" to-layer="232" to-port="0" />
		<edge from-layer="231" from-port="0" to-layer="232" to-port="1" />
		<edge from-layer="232" from-port="2" to-layer="233" to-port="0" />
		<edge from-layer="233" from-port="1" to-layer="235" to-port="0" />
		<edge from-layer="234" from-port="0" to-layer="235" to-port="1" />
		<edge from-layer="235" from-port="2" to-layer="237" to-port="0" />
		<edge from-layer="236" from-port="0" to-layer="237" to-port="1" />
		<edge from-layer="237" from-port="2" to-layer="238" to-port="0" />
		<edge from-layer="238" from-port="1" to-layer="240" to-port="1" />
		<edge from-layer="239" from-port="1" to-layer="240" to-port="2" />
		<edge from-layer="240" from-port="3" to-layer="242" to-port="0" />
		<edge from-layer="240" from-port="3" to-layer="247" to-port="0" />
		<edge from-layer="240" from-port="3" to-layer="266" to-port="0" />
		<edge from-layer="241" from-port="0" to-layer="242" to-port="1" />
		<edge from-layer="242" from-port="2" to-layer="244" to-port="0" />
		<edge from-layer="243" from-port="0" to-layer="244" to-port="1" />
		<edge from-layer="244" from-port="2" to-layer="245" to-port="0" />
		<edge from-layer="245" from-port="1" to-layer="261" to-port="0" />
		<edge from-layer="246" from-port="0" to-layer="247" to-port="1" />
		<edge from-layer="247" from-port="2" to-layer="249" to-port="0" />
		<edge from-layer="248" from-port="0" to-layer="249" to-port="1" />
		<edge from-layer="249" from-port="2" to-layer="250" to-port="0" />
		<edge from-layer="250" from-port="1" to-layer="252" to-port="0" />
		<edge from-layer="251" from-port="0" to-layer="252" to-port="1" />
		<edge from-layer="252" from-port="2" to-layer="254" to-port="0" />
		<edge from-layer="253" from-port="0" to-layer="254" to-port="1" />
		<edge from-layer="254" from-port="2" to-layer="255" to-port="0" />
		<edge from-layer="255" from-port="1" to-layer="257" to-port="0" />
		<edge from-layer="256" from-port="0" to-layer="257" to-port="1" />
		<edge from-layer="257" from-port="2" to-layer="259" to-port="0" />
		<edge from-layer="258" from-port="0" to-layer="259" to-port="1" />
		<edge from-layer="259" from-port="2" to-layer="260" to-port="0" />
		<edge from-layer="260" from-port="1" to-layer="261" to-port="1" />
		<edge from-layer="261" from-port="2" to-layer="263" to-port="0" />
		<edge from-layer="262" from-port="0" to-layer="263" to-port="1" />
		<edge from-layer="263" from-port="2" to-layer="265" to-port="0" />
		<edge from-layer="264" from-port="0" to-layer="265" to-port="1" />
		<edge from-layer="265" from-port="2" to-layer="266" to-port="1" />
		<edge from-layer="266" from-port="2" to-layer="267" to-port="0" />
		<edge from-layer="267" from-port="1" to-layer="269" to-port="0" />
		<edge from-layer="267" from-port="1" to-layer="293" to-port="0" />
		<edge from-layer="267" from-port="1" to-layer="274" to-port="0" />
		<edge from-layer="268" from-port="0" to-layer="269" to-port="1" />
		<edge from-layer="269" from-port="2" to-layer="271" to-port="0" />
		<edge from-layer="270" from-port="0" to-layer="271" to-port="1" />
		<edge from-layer="271" from-port="2" to-layer="272" to-port="0" />
		<edge from-layer="272" from-port="1" to-layer="288" to-port="0" />
		<edge from-layer="273" from-port="0" to-layer="274" to-port="1" />
		<edge from-layer="274" from-port="2" to-layer="276" to-port="0" />
		<edge from-layer="275" from-port="0" to-layer="276" to-port="1" />
		<edge from-layer="276" from-port="2" to-layer="277" to-port="0" />
		<edge from-layer="277" from-port="1" to-layer="279" to-port="0" />
		<edge from-layer="278" from-port="0" to-layer="279" to-port="1" />
		<edge from-layer="279" from-port="2" to-layer="281" to-port="0" />
		<edge from-layer="280" from-port="0" to-layer="281" to-port="1" />
		<edge from-layer="281" from-port="2" to-layer="282" to-port="0" />
		<edge from-layer="282" from-port="1" to-layer="284" to-port="0" />
		<edge from-layer="283" from-port="0" to-layer="284" to-port="1" />
		<edge from-layer="284" from-port="2" to-layer="286" to-port="0" />
		<edge from-layer="285" from-port="0" to-layer="286" to-port="1" />
		<edge from-layer="286" from-port="2" to-layer="287" to-port="0" />
		<edge from-layer="287" from-port="1" to-layer="288" to-port="1" />
		<edge from-layer="288" from-port="2" to-layer="290" to-port="0" />
		<edge from-layer="289" from-port="0" to-layer="290" to-port="1" />
		<edge from-layer="290" from-port="2" to-layer="292" to-port="0" />
		<edge from-layer="291" from-port="0" to-layer="292" to-port="1" />
		<edge from-layer="292" from-port="2" to-layer="293" to-port="1" />
		<edge from-layer="293" from-port="2" to-layer="294" to-port="0" />
		<edge from-layer="294" from-port="1" to-layer="296" to-port="0" />
		<edge from-layer="294" from-port="1" to-layer="320" to-port="0" />
		<edge from-layer="294" from-port="1" to-layer="301" to-port="0" />
		<edge from-layer="295" from-port="0" to-layer="296" to-port="1" />
		<edge from-layer="296" from-port="2" to-layer="298" to-port="0" />
		<edge from-layer="297" from-port="0" to-layer="298" to-port="1" />
		<edge from-layer="298" from-port="2" to-layer="299" to-port="0" />
		<edge from-layer="299" from-port="1" to-layer="315" to-port="0" />
		<edge from-layer="300" from-port="0" to-layer="301" to-port="1" />
		<edge from-layer="301" from-port="2" to-layer="303" to-port="0" />
		<edge from-layer="302" from-port="0" to-layer="303" to-port="1" />
		<edge from-layer="303" from-port="2" to-layer="304" to-port="0" />
		<edge from-layer="304" from-port="1" to-layer="306" to-port="0" />
		<edge from-layer="305" from-port="0" to-layer="306" to-port="1" />
		<edge from-layer="306" from-port="2" to-layer="308" to-port="0" />
		<edge from-layer="307" from-port="0" to-layer="308" to-port="1" />
		<edge from-layer="308" from-port="2" to-layer="309" to-port="0" />
		<edge from-layer="309" from-port="1" to-layer="311" to-port="0" />
		<edge from-layer="310" from-port="0" to-layer="311" to-port="1" />
		<edge from-layer="311" from-port="2" to-layer="313" to-port="0" />
		<edge from-layer="312" from-port="0" to-layer="313" to-port="1" />
		<edge from-layer="313" from-port="2" to-layer="314" to-port="0" />
		<edge from-layer="314" from-port="1" to-layer="315" to-port="1" />
		<edge from-layer="315" from-port="2" to-layer="317" to-port="0" />
		<edge from-layer="316" from-port="0" to-layer="317" to-port="1" />
		<edge from-layer="317" from-port="2" to-layer="319" to-port="0" />
		<edge from-layer="318" from-port="0" to-layer="319" to-port="1" />
		<edge from-layer="319" from-port="2" to-layer="320" to-port="1" />
		<edge from-layer="320" from-port="2" to-layer="321" to-port="0" />
		<edge from-layer="321" from-port="1" to-layer="323" to-port="0" />
		<edge from-layer="321" from-port="1" to-layer="328" to-port="0" />
		<edge from-layer="321" from-port="1" to-layer="347" to-port="0" />
		<edge from-layer="322" from-port="0" to-layer="323" to-port="1" />
		<edge from-layer="323" from-port="2" to-layer="325" to-port="0" />
		<edge from-layer="324" from-port="0" to-layer="325" to-port="1" />
		<edge from-layer="325" from-port="2" to-layer="326" to-port="0" />
		<edge from-layer="326" from-port="1" to-layer="342" to-port="0" />
		<edge from-layer="327" from-port="0" to-layer="328" to-port="1" />
		<edge from-layer="328" from-port="2" to-layer="330" to-port="0" />
		<edge from-layer="329" from-port="0" to-layer="330" to-port="1" />
		<edge from-layer="330" from-port="2" to-layer="331" to-port="0" />
		<edge from-layer="331" from-port="1" to-layer="333" to-port="0" />
		<edge from-layer="332" from-port="0" to-layer="333" to-port="1" />
		<edge from-layer="333" from-port="2" to-layer="335" to-port="0" />
		<edge from-layer="334" from-port="0" to-layer="335" to-port="1" />
		<edge from-layer="335" from-port="2" to-layer="336" to-port="0" />
		<edge from-layer="336" from-port="1" to-layer="338" to-port="0" />
		<edge from-layer="337" from-port="0" to-layer="338" to-port="1" />
		<edge from-layer="338" from-port="2" to-layer="340" to-port="0" />
		<edge from-layer="339" from-port="0" to-layer="340" to-port="1" />
		<edge from-layer="340" from-port="2" to-layer="341" to-port="0" />
		<edge from-layer="341" from-port="1" to-layer="342" to-port="1" />
		<edge from-layer="342" from-port="2" to-layer="344" to-port="0" />
		<edge from-layer="343" from-port="0" to-layer="344" to-port="1" />
		<edge from-layer="344" from-port="2" to-layer="346" to-port="0" />
		<edge from-layer="345" from-port="0" to-layer="346" to-port="1" />
		<edge from-layer="346" from-port="2" to-layer="347" to-port="1" />
		<edge from-layer="347" from-port="2" to-layer="348" to-port="0" />
		<edge from-layer="348" from-port="1" to-layer="374" to-port="0" />
		<edge from-layer="348" from-port="1" to-layer="355" to-port="0" />
		<edge from-layer="348" from-port="1" to-layer="350" to-port="0" />
		<edge from-layer="349" from-port="0" to-layer="350" to-port="1" />
		<edge from-layer="350" from-port="2" to-layer="352" to-port="0" />
		<edge from-layer="351" from-port="0" to-layer="352" to-port="1" />
		<edge from-layer="352" from-port="2" to-layer="353" to-port="0" />
		<edge from-layer="353" from-port="1" to-layer="369" to-port="0" />
		<edge from-layer="354" from-port="0" to-layer="355" to-port="1" />
		<edge from-layer="355" from-port="2" to-layer="357" to-port="0" />
		<edge from-layer="356" from-port="0" to-layer="357" to-port="1" />
		<edge from-layer="357" from-port="2" to-layer="358" to-port="0" />
		<edge from-layer="358" from-port="1" to-layer="360" to-port="0" />
		<edge from-layer="359" from-port="0" to-layer="360" to-port="1" />
		<edge from-layer="360" from-port="2" to-layer="362" to-port="0" />
		<edge from-layer="361" from-port="0" to-layer="362" to-port="1" />
		<edge from-layer="362" from-port="2" to-layer="363" to-port="0" />
		<edge from-layer="363" from-port="1" to-layer="365" to-port="0" />
		<edge from-layer="364" from-port="0" to-layer="365" to-port="1" />
		<edge from-layer="365" from-port="2" to-layer="367" to-port="0" />
		<edge from-layer="366" from-port="0" to-layer="367" to-port="1" />
		<edge from-layer="367" from-port="2" to-layer="368" to-port="0" />
		<edge from-layer="368" from-port="1" to-layer="369" to-port="1" />
		<edge from-layer="369" from-port="2" to-layer="371" to-port="0" />
		<edge from-layer="370" from-port="0" to-layer="371" to-port="1" />
		<edge from-layer="371" from-port="2" to-layer="373" to-port="0" />
		<edge from-layer="372" from-port="0" to-layer="373" to-port="1" />
		<edge from-layer="373" from-port="2" to-layer="374" to-port="1" />
		<edge from-layer="374" from-port="2" to-layer="375" to-port="0" />
		<edge from-layer="375" from-port="1" to-layer="401" to-port="0" />
		<edge from-layer="375" from-port="1" to-layer="382" to-port="0" />
		<edge from-layer="375" from-port="1" to-layer="377" to-port="0" />
		<edge from-layer="376" from-port="0" to-layer="377" to-port="1" />
		<edge from-layer="377" from-port="2" to-layer="379" to-port="0" />
		<edge from-layer="378" from-port="0" to-layer="379" to-port="1" />
		<edge from-layer="379" from-port="2" to-layer="380" to-port="0" />
		<edge from-layer="380" from-port="1" to-layer="396" to-port="0" />
		<edge from-layer="381" from-port="0" to-layer="382" to-port="1" />
		<edge from-layer="382" from-port="2" to-layer="384" to-port="0" />
		<edge from-layer="383" from-port="0" to-layer="384" to-port="1" />
		<edge from-layer="384" from-port="2" to-layer="385" to-port="0" />
		<edge from-layer="385" from-port="1" to-layer="387" to-port="0" />
		<edge from-layer="386" from-port="0" to-layer="387" to-port="1" />
		<edge from-layer="387" from-port="2" to-layer="389" to-port="0" />
		<edge from-layer="388" from-port="0" to-layer="389" to-port="1" />
		<edge from-layer="389" from-port="2" to-layer="390" to-port="0" />
		<edge from-layer="390" from-port="1" to-layer="392" to-port="0" />
		<edge from-layer="391" from-port="0" to-layer="392" to-port="1" />
		<edge from-layer="392" from-port="2" to-layer="394" to-port="0" />
		<edge from-layer="393" from-port="0" to-layer="394" to-port="1" />
		<edge from-layer="394" from-port="2" to-layer="395" to-port="0" />
		<edge from-layer="395" from-port="1" to-layer="396" to-port="1" />
		<edge from-layer="396" from-port="2" to-layer="398" to-port="0" />
		<edge from-layer="397" from-port="0" to-layer="398" to-port="1" />
		<edge from-layer="398" from-port="2" to-layer="400" to-port="0" />
		<edge from-layer="399" from-port="0" to-layer="400" to-port="1" />
		<edge from-layer="400" from-port="2" to-layer="401" to-port="1" />
		<edge from-layer="401" from-port="2" to-layer="402" to-port="0" />
		<edge from-layer="402" from-port="1" to-layer="428" to-port="0" />
		<edge from-layer="402" from-port="1" to-layer="409" to-port="0" />
		<edge from-layer="402" from-port="1" to-layer="404" to-port="0" />
		<edge from-layer="403" from-port="0" to-layer="404" to-port="1" />
		<edge from-layer="404" from-port="2" to-layer="406" to-port="0" />
		<edge from-layer="405" from-port="0" to-layer="406" to-port="1" />
		<edge from-layer="406" from-port="2" to-layer="407" to-port="0" />
		<edge from-layer="407" from-port="1" to-layer="423" to-port="0" />
		<edge from-layer="408" from-port="0" to-layer="409" to-port="1" />
		<edge from-layer="409" from-port="2" to-layer="411" to-port="0" />
		<edge from-layer="410" from-port="0" to-layer="411" to-port="1" />
		<edge from-layer="411" from-port="2" to-layer="412" to-port="0" />
		<edge from-layer="412" from-port="1" to-layer="414" to-port="0" />
		<edge from-layer="413" from-port="0" to-layer="414" to-port="1" />
		<edge from-layer="414" from-port="2" to-layer="416" to-port="0" />
		<edge from-layer="415" from-port="0" to-layer="416" to-port="1" />
		<edge from-layer="416" from-port="2" to-layer="417" to-port="0" />
		<edge from-layer="417" from-port="1" to-layer="419" to-port="0" />
		<edge from-layer="418" from-port="0" to-layer="419" to-port="1" />
		<edge from-layer="419" from-port="2" to-layer="421" to-port="0" />
		<edge from-layer="420" from-port="0" to-layer="421" to-port="1" />
		<edge from-layer="421" from-port="2" to-layer="422" to-port="0" />
		<edge from-layer="422" from-port="1" to-layer="423" to-port="1" />
		<edge from-layer="423" from-port="2" to-layer="425" to-port="0" />
		<edge from-layer="424" from-port="0" to-layer="425" to-port="1" />
		<edge from-layer="425" from-port="2" to-layer="427" to-port="0" />
		<edge from-layer="426" from-port="0" to-layer="427" to-port="1" />
		<edge from-layer="427" from-port="2" to-layer="428" to-port="1" />
		<edge from-layer="428" from-port="2" to-layer="429" to-port="0" />
		<edge from-layer="429" from-port="1" to-layer="431" to-port="0" />
		<edge from-layer="429" from-port="1" to-layer="436" to-port="0" />
		<edge from-layer="429" from-port="1" to-layer="455" to-port="0" />
		<edge from-layer="430" from-port="0" to-layer="431" to-port="1" />
		<edge from-layer="431" from-port="2" to-layer="433" to-port="0" />
		<edge from-layer="432" from-port="0" to-layer="433" to-port="1" />
		<edge from-layer="433" from-port="2" to-layer="434" to-port="0" />
		<edge from-layer="434" from-port="1" to-layer="450" to-port="0" />
		<edge from-layer="435" from-port="0" to-layer="436" to-port="1" />
		<edge from-layer="436" from-port="2" to-layer="438" to-port="0" />
		<edge from-layer="437" from-port="0" to-layer="438" to-port="1" />
		<edge from-layer="438" from-port="2" to-layer="439" to-port="0" />
		<edge from-layer="439" from-port="1" to-layer="441" to-port="0" />
		<edge from-layer="440" from-port="0" to-layer="441" to-port="1" />
		<edge from-layer="441" from-port="2" to-layer="443" to-port="0" />
		<edge from-layer="442" from-port="0" to-layer="443" to-port="1" />
		<edge from-layer="443" from-port="2" to-layer="444" to-port="0" />
		<edge from-layer="444" from-port="1" to-layer="446" to-port="0" />
		<edge from-layer="445" from-port="0" to-layer="446" to-port="1" />
		<edge from-layer="446" from-port="2" to-layer="448" to-port="0" />
		<edge from-layer="447" from-port="0" to-layer="448" to-port="1" />
		<edge from-layer="448" from-port="2" to-layer="449" to-port="0" />
		<edge from-layer="449" from-port="1" to-layer="450" to-port="1" />
		<edge from-layer="450" from-port="2" to-layer="452" to-port="0" />
		<edge from-layer="451" from-port="0" to-layer="452" to-port="1" />
		<edge from-layer="452" from-port="2" to-layer="454" to-port="0" />
		<edge from-layer="453" from-port="0" to-layer="454" to-port="1" />
		<edge from-layer="454" from-port="2" to-layer="455" to-port="1" />
		<edge from-layer="455" from-port="2" to-layer="456" to-port="0" />
		<edge from-layer="456" from-port="1" to-layer="458" to-port="0" />
		<edge from-layer="456" from-port="1" to-layer="482" to-port="0" />
		<edge from-layer="456" from-port="1" to-layer="463" to-port="0" />
		<edge from-layer="457" from-port="0" to-layer="458" to-port="1" />
		<edge from-layer="458" from-port="2" to-layer="460" to-port="0" />
		<edge from-layer="459" from-port="0" to-layer="460" to-port="1" />
		<edge from-layer="460" from-port="2" to-layer="461" to-port="0" />
		<edge from-layer="461" from-port="1" to-layer="477" to-port="0" />
		<edge from-layer="462" from-port="0" to-layer="463" to-port="1" />
		<edge from-layer="463" from-port="2" to-layer="465" to-port="0" />
		<edge from-layer="464" from-port="0" to-layer="465" to-port="1" />
		<edge from-layer="465" from-port="2" to-layer="466" to-port="0" />
		<edge from-layer="466" from-port="1" to-layer="468" to-port="0" />
		<edge from-layer="467" from-port="0" to-layer="468" to-port="1" />
		<edge from-layer="468" from-port="2" to-layer="470" to-port="0" />
		<edge from-layer="469" from-port="0" to-layer="470" to-port="1" />
		<edge from-layer="470" from-port="2" to-layer="471" to-port="0" />
		<edge from-layer="471" from-port="1" to-layer="473" to-port="0" />
		<edge from-layer="472" from-port="0" to-layer="473" to-port="1" />
		<edge from-layer="473" from-port="2" to-layer="475" to-port="0" />
		<edge from-layer="474" from-port="0" to-layer="475" to-port="1" />
		<edge from-layer="475" from-port="2" to-layer="476" to-port="0" />
		<edge from-layer="476" from-port="1" to-layer="477" to-port="1" />
		<edge from-layer="477" from-port="2" to-layer="479" to-port="0" />
		<edge from-layer="478" from-port="0" to-layer="479" to-port="1" />
		<edge from-layer="479" from-port="2" to-layer="481" to-port="0" />
		<edge from-layer="480" from-port="0" to-layer="481" to-port="1" />
		<edge from-layer="481" from-port="2" to-layer="482" to-port="1" />
		<edge from-layer="482" from-port="2" to-layer="483" to-port="0" />
		<edge from-layer="483" from-port="1" to-layer="485" to-port="0" />
		<edge from-layer="483" from-port="1" to-layer="490" to-port="0" />
		<edge from-layer="483" from-port="1" to-layer="509" to-port="0" />
		<edge from-layer="484" from-port="0" to-layer="485" to-port="1" />
		<edge from-layer="485" from-port="2" to-layer="487" to-port="0" />
		<edge from-layer="486" from-port="0" to-layer="487" to-port="1" />
		<edge from-layer="487" from-port="2" to-layer="488" to-port="0" />
		<edge from-layer="488" from-port="1" to-layer="504" to-port="0" />
		<edge from-layer="489" from-port="0" to-layer="490" to-port="1" />
		<edge from-layer="490" from-port="2" to-layer="492" to-port="0" />
		<edge from-layer="491" from-port="0" to-layer="492" to-port="1" />
		<edge from-layer="492" from-port="2" to-layer="493" to-port="0" />
		<edge from-layer="493" from-port="1" to-layer="495" to-port="0" />
		<edge from-layer="494" from-port="0" to-layer="495" to-port="1" />
		<edge from-layer="495" from-port="2" to-layer="497" to-port="0" />
		<edge from-layer="496" from-port="0" to-layer="497" to-port="1" />
		<edge from-layer="497" from-port="2" to-layer="498" to-port="0" />
		<edge from-layer="498" from-port="1" to-layer="500" to-port="0" />
		<edge from-layer="499" from-port="0" to-layer="500" to-port="1" />
		<edge from-layer="500" from-port="2" to-layer="502" to-port="0" />
		<edge from-layer="501" from-port="0" to-layer="502" to-port="1" />
		<edge from-layer="502" from-port="2" to-layer="503" to-port="0" />
		<edge from-layer="503" from-port="1" to-layer="504" to-port="1" />
		<edge from-layer="504" from-port="2" to-layer="506" to-port="0" />
		<edge from-layer="505" from-port="0" to-layer="506" to-port="1" />
		<edge from-layer="506" from-port="2" to-layer="508" to-port="0" />
		<edge from-layer="507" from-port="0" to-layer="508" to-port="1" />
		<edge from-layer="508" from-port="2" to-layer="509" to-port="1" />
		<edge from-layer="509" from-port="2" to-layer="510" to-port="0" />
		<edge from-layer="510" from-port="1" to-layer="512" to-port="0" />
		<edge from-layer="510" from-port="1" to-layer="546" to-port="0" />
		<edge from-layer="510" from-port="1" to-layer="532" to-port="0" />
		<edge from-layer="510" from-port="1" to-layer="522" to-port="0" />
		<edge from-layer="511" from-port="0" to-layer="512" to-port="1" />
		<edge from-layer="512" from-port="2" to-layer="514" to-port="0" />
		<edge from-layer="513" from-port="0" to-layer="514" to-port="1" />
		<edge from-layer="514" from-port="2" to-layer="515" to-port="0" />
		<edge from-layer="515" from-port="1" to-layer="517" to-port="0" />
		<edge from-layer="516" from-port="0" to-layer="517" to-port="1" />
		<edge from-layer="517" from-port="2" to-layer="519" to-port="0" />
		<edge from-layer="518" from-port="0" to-layer="519" to-port="1" />
		<edge from-layer="519" from-port="2" to-layer="520" to-port="0" />
		<edge from-layer="520" from-port="1" to-layer="547" to-port="0" />
		<edge from-layer="521" from-port="0" to-layer="522" to-port="1" />
		<edge from-layer="522" from-port="2" to-layer="524" to-port="0" />
		<edge from-layer="523" from-port="0" to-layer="524" to-port="1" />
		<edge from-layer="524" from-port="2" to-layer="525" to-port="0" />
		<edge from-layer="525" from-port="1" to-layer="527" to-port="0" />
		<edge from-layer="526" from-port="0" to-layer="527" to-port="1" />
		<edge from-layer="527" from-port="2" to-layer="529" to-port="0" />
		<edge from-layer="528" from-port="0" to-layer="529" to-port="1" />
		<edge from-layer="529" from-port="2" to-layer="530" to-port="0" />
		<edge from-layer="530" from-port="1" to-layer="547" to-port="1" />
		<edge from-layer="531" from-port="0" to-layer="532" to-port="1" />
		<edge from-layer="532" from-port="2" to-layer="534" to-port="0" />
		<edge from-layer="533" from-port="0" to-layer="534" to-port="1" />
		<edge from-layer="534" from-port="2" to-layer="535" to-port="0" />
		<edge from-layer="535" from-port="1" to-layer="537" to-port="0" />
		<edge from-layer="536" from-port="0" to-layer="537" to-port="1" />
		<edge from-layer="537" from-port="2" to-layer="539" to-port="0" />
		<edge from-layer="538" from-port="0" to-layer="539" to-port="1" />
		<edge from-layer="539" from-port="2" to-layer="540" to-port="0" />
		<edge from-layer="540" from-port="1" to-layer="542" to-port="0" />
		<edge from-layer="541" from-port="0" to-layer="542" to-port="1" />
		<edge from-layer="542" from-port="2" to-layer="544" to-port="0" />
		<edge from-layer="543" from-port="0" to-layer="544" to-port="1" />
		<edge from-layer="544" from-port="2" to-layer="545" to-port="0" />
		<edge from-layer="545" from-port="1" to-layer="547" to-port="2" />
		<edge from-layer="546" from-port="1" to-layer="547" to-port="3" />
		<edge from-layer="547" from-port="4" to-layer="549" to-port="0" />
		<edge from-layer="547" from-port="4" to-layer="573" to-port="0" />
		<edge from-layer="547" from-port="4" to-layer="554" to-port="0" />
		<edge from-layer="548" from-port="0" to-layer="549" to-port="1" />
		<edge from-layer="549" from-port="2" to-layer="551" to-port="0" />
		<edge from-layer="550" from-port="0" to-layer="551" to-port="1" />
		<edge from-layer="551" from-port="2" to-layer="552" to-port="0" />
		<edge from-layer="552" from-port="1" to-layer="568" to-port="0" />
		<edge from-layer="553" from-port="0" to-layer="554" to-port="1" />
		<edge from-layer="554" from-port="2" to-layer="556" to-port="0" />
		<edge from-layer="555" from-port="0" to-layer="556" to-port="1" />
		<edge from-layer="556" from-port="2" to-layer="557" to-port="0" />
		<edge from-layer="557" from-port="1" to-layer="559" to-port="0" />
		<edge from-layer="558" from-port="0" to-layer="559" to-port="1" />
		<edge from-layer="559" from-port="2" to-layer="561" to-port="0" />
		<edge from-layer="560" from-port="0" to-layer="561" to-port="1" />
		<edge from-layer="561" from-port="2" to-layer="562" to-port="0" />
		<edge from-layer="562" from-port="1" to-layer="564" to-port="0" />
		<edge from-layer="563" from-port="0" to-layer="564" to-port="1" />
		<edge from-layer="564" from-port="2" to-layer="566" to-port="0" />
		<edge from-layer="565" from-port="0" to-layer="566" to-port="1" />
		<edge from-layer="566" from-port="2" to-layer="567" to-port="0" />
		<edge from-layer="567" from-port="1" to-layer="568" to-port="1" />
		<edge from-layer="568" from-port="2" to-layer="570" to-port="0" />
		<edge from-layer="569" from-port="0" to-layer="570" to-port="1" />
		<edge from-layer="570" from-port="2" to-layer="572" to-port="0" />
		<edge from-layer="571" from-port="0" to-layer="572" to-port="1" />
		<edge from-layer="572" from-port="2" to-layer="573" to-port="1" />
		<edge from-layer="573" from-port="2" to-layer="574" to-port="0" />
		<edge from-layer="574" from-port="1" to-layer="576" to-port="0" />
		<edge from-layer="574" from-port="1" to-layer="581" to-port="0" />
		<edge from-layer="574" from-port="1" to-layer="600" to-port="0" />
		<edge from-layer="575" from-port="0" to-layer="576" to-port="1" />
		<edge from-layer="576" from-port="2" to-layer="578" to-port="0" />
		<edge from-layer="577" from-port="0" to-layer="578" to-port="1" />
		<edge from-layer="578" from-port="2" to-layer="579" to-port="0" />
		<edge from-layer="579" from-port="1" to-layer="595" to-port="0" />
		<edge from-layer="580" from-port="0" to-layer="581" to-port="1" />
		<edge from-layer="581" from-port="2" to-layer="583" to-port="0" />
		<edge from-layer="582" from-port="0" to-layer="583" to-port="1" />
		<edge from-layer="583" from-port="2" to-layer="584" to-port="0" />
		<edge from-layer="584" from-port="1" to-layer="586" to-port="0" />
		<edge from-layer="585" from-port="0" to-layer="586" to-port="1" />
		<edge from-layer="586" from-port="2" to-layer="588" to-port="0" />
		<edge from-layer="587" from-port="0" to-layer="588" to-port="1" />
		<edge from-layer="588" from-port="2" to-layer="589" to-port="0" />
		<edge from-layer="589" from-port="1" to-layer="591" to-port="0" />
		<edge from-layer="590" from-port="0" to-layer="591" to-port="1" />
		<edge from-layer="591" from-port="2" to-layer="593" to-port="0" />
		<edge from-layer="592" from-port="0" to-layer="593" to-port="1" />
		<edge from-layer="593" from-port="2" to-layer="594" to-port="0" />
		<edge from-layer="594" from-port="1" to-layer="595" to-port="1" />
		<edge from-layer="595" from-port="2" to-layer="597" to-port="0" />
		<edge from-layer="596" from-port="0" to-layer="597" to-port="1" />
		<edge from-layer="597" from-port="2" to-layer="599" to-port="0" />
		<edge from-layer="598" from-port="0" to-layer="599" to-port="1" />
		<edge from-layer="599" from-port="2" to-layer="600" to-port="1" />
		<edge from-layer="600" from-port="2" to-layer="601" to-port="0" />
		<edge from-layer="601" from-port="1" to-layer="603" to-port="0" />
		<edge from-layer="601" from-port="1" to-layer="608" to-port="0" />
		<edge from-layer="601" from-port="1" to-layer="627" to-port="0" />
		<edge from-layer="602" from-port="0" to-layer="603" to-port="1" />
		<edge from-layer="603" from-port="2" to-layer="605" to-port="0" />
		<edge from-layer="604" from-port="0" to-layer="605" to-port="1" />
		<edge from-layer="605" from-port="2" to-layer="606" to-port="0" />
		<edge from-layer="606" from-port="1" to-layer="622" to-port="0" />
		<edge from-layer="607" from-port="0" to-layer="608" to-port="1" />
		<edge from-layer="608" from-port="2" to-layer="610" to-port="0" />
		<edge from-layer="609" from-port="0" to-layer="610" to-port="1" />
		<edge from-layer="610" from-port="2" to-layer="611" to-port="0" />
		<edge from-layer="611" from-port="1" to-layer="613" to-port="0" />
		<edge from-layer="612" from-port="0" to-layer="613" to-port="1" />
		<edge from-layer="613" from-port="2" to-layer="615" to-port="0" />
		<edge from-layer="614" from-port="0" to-layer="615" to-port="1" />
		<edge from-layer="615" from-port="2" to-layer="616" to-port="0" />
		<edge from-layer="616" from-port="1" to-layer="618" to-port="0" />
		<edge from-layer="617" from-port="0" to-layer="618" to-port="1" />
		<edge from-layer="618" from-port="2" to-layer="620" to-port="0" />
		<edge from-layer="619" from-port="0" to-layer="620" to-port="1" />
		<edge from-layer="620" from-port="2" to-layer="621" to-port="0" />
		<edge from-layer="621" from-port="1" to-layer="622" to-port="1" />
		<edge from-layer="622" from-port="2" to-layer="624" to-port="0" />
		<edge from-layer="623" from-port="0" to-layer="624" to-port="1" />
		<edge from-layer="624" from-port="2" to-layer="626" to-port="0" />
		<edge from-layer="625" from-port="0" to-layer="626" to-port="1" />
		<edge from-layer="626" from-port="2" to-layer="627" to-port="1" />
		<edge from-layer="627" from-port="2" to-layer="628" to-port="0" />
		<edge from-layer="628" from-port="1" to-layer="654" to-port="0" />
		<edge from-layer="628" from-port="1" to-layer="635" to-port="0" />
		<edge from-layer="628" from-port="1" to-layer="630" to-port="0" />
		<edge from-layer="629" from-port="0" to-layer="630" to-port="1" />
		<edge from-layer="630" from-port="2" to-layer="632" to-port="0" />
		<edge from-layer="631" from-port="0" to-layer="632" to-port="1" />
		<edge from-layer="632" from-port="2" to-layer="633" to-port="0" />
		<edge from-layer="633" from-port="1" to-layer="649" to-port="0" />
		<edge from-layer="634" from-port="0" to-layer="635" to-port="1" />
		<edge from-layer="635" from-port="2" to-layer="637" to-port="0" />
		<edge from-layer="636" from-port="0" to-layer="637" to-port="1" />
		<edge from-layer="637" from-port="2" to-layer="638" to-port="0" />
		<edge from-layer="638" from-port="1" to-layer="640" to-port="0" />
		<edge from-layer="639" from-port="0" to-layer="640" to-port="1" />
		<edge from-layer="640" from-port="2" to-layer="642" to-port="0" />
		<edge from-layer="641" from-port="0" to-layer="642" to-port="1" />
		<edge from-layer="642" from-port="2" to-layer="643" to-port="0" />
		<edge from-layer="643" from-port="1" to-layer="645" to-port="0" />
		<edge from-layer="644" from-port="0" to-layer="645" to-port="1" />
		<edge from-layer="645" from-port="2" to-layer="647" to-port="0" />
		<edge from-layer="646" from-port="0" to-layer="647" to-port="1" />
		<edge from-layer="647" from-port="2" to-layer="648" to-port="0" />
		<edge from-layer="648" from-port="1" to-layer="649" to-port="1" />
		<edge from-layer="649" from-port="2" to-layer="651" to-port="0" />
		<edge from-layer="650" from-port="0" to-layer="651" to-port="1" />
		<edge from-layer="651" from-port="2" to-layer="653" to-port="0" />
		<edge from-layer="652" from-port="0" to-layer="653" to-port="1" />
		<edge from-layer="653" from-port="2" to-layer="654" to-port="1" />
		<edge from-layer="654" from-port="2" to-layer="655" to-port="0" />
		<edge from-layer="655" from-port="1" to-layer="681" to-port="0" />
		<edge from-layer="655" from-port="1" to-layer="662" to-port="0" />
		<edge from-layer="655" from-port="1" to-layer="657" to-port="0" />
		<edge from-layer="656" from-port="0" to-layer="657" to-port="1" />
		<edge from-layer="657" from-port="2" to-layer="659" to-port="0" />
		<edge from-layer="658" from-port="0" to-layer="659" to-port="1" />
		<edge from-layer="659" from-port="2" to-layer="660" to-port="0" />
		<edge from-layer="660" from-port="1" to-layer="676" to-port="0" />
		<edge from-layer="661" from-port="0" to-layer="662" to-port="1" />
		<edge from-layer="662" from-port="2" to-layer="664" to-port="0" />
		<edge from-layer="663" from-port="0" to-layer="664" to-port="1" />
		<edge from-layer="664" from-port="2" to-layer="665" to-port="0" />
		<edge from-layer="665" from-port="1" to-layer="667" to-port="0" />
		<edge from-layer="666" from-port="0" to-layer="667" to-port="1" />
		<edge from-layer="667" from-port="2" to-layer="669" to-port="0" />
		<edge from-layer="668" from-port="0" to-layer="669" to-port="1" />
		<edge from-layer="669" from-port="2" to-layer="670" to-port="0" />
		<edge from-layer="670" from-port="1" to-layer="672" to-port="0" />
		<edge from-layer="671" from-port="0" to-layer="672" to-port="1" />
		<edge from-layer="672" from-port="2" to-layer="674" to-port="0" />
		<edge from-layer="673" from-port="0" to-layer="674" to-port="1" />
		<edge from-layer="674" from-port="2" to-layer="675" to-port="0" />
		<edge from-layer="675" from-port="1" to-layer="676" to-port="1" />
		<edge from-layer="676" from-port="2" to-layer="678" to-port="0" />
		<edge from-layer="677" from-port="0" to-layer="678" to-port="1" />
		<edge from-layer="678" from-port="2" to-layer="680" to-port="0" />
		<edge from-layer="679" from-port="0" to-layer="680" to-port="1" />
		<edge from-layer="680" from-port="2" to-layer="681" to-port="1" />
		<edge from-layer="681" from-port="2" to-layer="682" to-port="0" />
		<edge from-layer="682" from-port="1" to-layer="684" to-port="0" />
		<edge from-layer="682" from-port="1" to-layer="689" to-port="0" />
		<edge from-layer="682" from-port="1" to-layer="708" to-port="0" />
		<edge from-layer="683" from-port="0" to-layer="684" to-port="1" />
		<edge from-layer="684" from-port="2" to-layer="686" to-port="0" />
		<edge from-layer="685" from-port="0" to-layer="686" to-port="1" />
		<edge from-layer="686" from-port="2" to-layer="687" to-port="0" />
		<edge from-layer="687" from-port="1" to-layer="703" to-port="0" />
		<edge from-layer="688" from-port="0" to-layer="689" to-port="1" />
		<edge from-layer="689" from-port="2" to-layer="691" to-port="0" />
		<edge from-layer="690" from-port="0" to-layer="691" to-port="1" />
		<edge from-layer="691" from-port="2" to-layer="692" to-port="0" />
		<edge from-layer="692" from-port="1" to-layer="694" to-port="0" />
		<edge from-layer="693" from-port="0" to-layer="694" to-port="1" />
		<edge from-layer="694" from-port="2" to-layer="696" to-port="0" />
		<edge from-layer="695" from-port="0" to-layer="696" to-port="1" />
		<edge from-layer="696" from-port="2" to-layer="697" to-port="0" />
		<edge from-layer="697" from-port="1" to-layer="699" to-port="0" />
		<edge from-layer="698" from-port="0" to-layer="699" to-port="1" />
		<edge from-layer="699" from-port="2" to-layer="701" to-port="0" />
		<edge from-layer="700" from-port="0" to-layer="701" to-port="1" />
		<edge from-layer="701" from-port="2" to-layer="702" to-port="0" />
		<edge from-layer="702" from-port="1" to-layer="703" to-port="1" />
		<edge from-layer="703" from-port="2" to-layer="705" to-port="0" />
		<edge from-layer="704" from-port="0" to-layer="705" to-port="1" />
		<edge from-layer="705" from-port="2" to-layer="707" to-port="0" />
		<edge from-layer="706" from-port="0" to-layer="707" to-port="1" />
		<edge from-layer="707" from-port="2" to-layer="708" to-port="1" />
		<edge from-layer="708" from-port="2" to-layer="710" to-port="0" />
		<edge from-layer="709" from-port="0" to-layer="710" to-port="1" />
		<edge from-layer="710" from-port="2" to-layer="712" to-port="0" />
		<edge from-layer="711" from-port="0" to-layer="712" to-port="1" />
		<edge from-layer="712" from-port="2" to-layer="713" to-port="0" />
		<edge from-layer="712" from-port="2" to-layer="729" to-port="0" />
		<edge from-layer="713" from-port="1" to-layer="717" to-port="0" />
		<edge from-layer="713" from-port="1" to-layer="738" to-port="0" />
		<edge from-layer="714" from-port="0" to-layer="717" to-port="1" />
		<edge from-layer="715" from-port="0" to-layer="717" to-port="2" />
		<edge from-layer="716" from-port="0" to-layer="717" to-port="3" />
		<edge from-layer="717" from-port="4" to-layer="721" to-port="0" />
		<edge from-layer="717" from-port="4" to-layer="726" to-port="0" />
		<edge from-layer="718" from-port="0" to-layer="721" to-port="1" />
		<edge from-layer="719" from-port="0" to-layer="721" to-port="2" />
		<edge from-layer="720" from-port="0" to-layer="721" to-port="3" />
		<edge from-layer="721" from-port="4" to-layer="727" to-port="0" />
		<edge from-layer="722" from-port="0" to-layer="727" to-port="1" />
		<edge from-layer="723" from-port="0" to-layer="726" to-port="1" />
		<edge from-layer="724" from-port="0" to-layer="726" to-port="2" />
		<edge from-layer="725" from-port="0" to-layer="726" to-port="3" />
		<edge from-layer="726" from-port="4" to-layer="727" to-port="2" />
		<edge from-layer="727" from-port="3" to-layer="728" to-port="0" />
		<edge from-layer="728" from-port="1" to-layer="729" to-port="1" />
		<edge from-layer="729" from-port="2" to-layer="731" to-port="0" />
		<edge from-layer="730" from-port="0" to-layer="731" to-port="1" />
		<edge from-layer="731" from-port="2" to-layer="733" to-port="0" />
		<edge from-layer="732" from-port="0" to-layer="733" to-port="1" />
		<edge from-layer="733" from-port="2" to-layer="735" to-port="0" />
		<edge from-layer="734" from-port="0" to-layer="735" to-port="1" />
		<edge from-layer="735" from-port="2" to-layer="737" to-port="0" />
		<edge from-layer="736" from-port="0" to-layer="737" to-port="1" />
		<edge from-layer="737" from-port="2" to-layer="739" to-port="0" />
		<edge from-layer="738" from-port="1" to-layer="739" to-port="1" />
		<edge from-layer="739" from-port="2" to-layer="740" to-port="0" />
	</edges>
	<rt_info>
		<MO_version value="2022.3.0-9038-b84161848ea-releases/2022/3" />
		<Runtime_version value="2022.3.0-9038-b84161848ea-releases/2022/3" />
		<conversion_parameters>
			<framework value="tf" />
			<input_model value="DIR/facenet_keras.pb" />
			<input_shape value="[1, 160, 160, 3]" />
			<model_name value="facenet_keras" />
			<output_dir value="DIR" />
		</conversion_parameters>
		<legacy_frontend value="True" />
	</rt_info>
</net>
